node {
  name: "Cast/x"
  op: "Const"
  device: "/replica:0/task:0/device:CPU:0"
  attr {
    key: "_output_shapes"
    value {
      list {
        shape {
          dim {
            size: 1024
          }
          dim {
            size: 10
          }
        }
      }
    }
  }
  attr {
    key: "dtype"
    value {
      type: DT_DOUBLE
    }
  }
  attr {
    key: "value"
    value {
      tensor {
        dtype: DT_DOUBLE
        tensor_shape {
          dim {
            size: 1024
          }
          dim {
            size: 10
          }
        }
        tensor_content: "…"
      }
    }
  }
}
node {
  name: "Cast"
  op: "Cast"
  input: "Cast/x"
  device: "/replica:0/task:0/device:CPU:0"
  attr {
    key: "DstT"
    value {
      type: DT_FLOAT
    }
  }
  attr {
    key: "SrcT"
    value {
      type: DT_DOUBLE
    }
  }
  attr {
    key: "Truncate"
    value {
      b: false
    }
  }
  attr {
    key: "_output_shapes"
    value {
      list {
        shape {
          dim {
            size: 1024
          }
          dim {
            size: 10
          }
        }
      }
    }
  }
}
node {
  name: "tensors/normalize_tensors/component_1"
  op: "Const"
  device: "/replica:0/task:0/device:CPU:0"
  attr {
    key: "_output_shapes"
    value {
      list {
        shape {
          dim {
            size: 1024
          }
          dim {
            size: 1
          }
        }
      }
    }
  }
  attr {
    key: "dtype"
    value {
      type: DT_INT32
    }
  }
  attr {
    key: "value"
    value {
      tensor {
        dtype: DT_INT32
        tensor_shape {
          dim {
            size: 1024
          }
          dim {
            size: 1
          }
        }
        tensor_content: "…"
      }
    }
  }
}
node {
  name: "TensorSliceDataset"
  op: "TensorSliceDataset"
  input: "Cast"
  input: "tensors/normalize_tensors/component_1"
  device: "/replica:0/task:0/device:CPU:0"
  attr {
    key: "Toutput_types"
    value {
      list {
        type: DT_FLOAT
        type: DT_INT32
      }
    }
  }
  attr {
    key: "_output_shapes"
    value {
      list {
        shape {
        }
      }
    }
  }
  attr {
    key: "output_shapes"
    value {
      list {
        shape {
          dim {
            size: 10
          }
        }
        shape {
          dim {
            size: 1
          }
        }
      }
    }
  }
}
node {
  name: "count"
  op: "Const"
  device: "/replica:0/task:0/device:CPU:0"
  attr {
    key: "_output_shapes"
    value {
      list {
        shape {
        }
      }
    }
  }
  attr {
    key: "dtype"
    value {
      type: DT_INT64
    }
  }
  attr {
    key: "value"
    value {
      tensor {
        dtype: DT_INT64
        tensor_shape {
        }
        int64_val: 10
      }
    }
  }
}
node {
  name: "RepeatDataset"
  op: "RepeatDataset"
  input: "TensorSliceDataset"
  input: "count"
  device: "/replica:0/task:0/device:CPU:0"
  attr {
    key: "_output_shapes"
    value {
      list {
        shape {
        }
      }
    }
  }
  attr {
    key: "output_shapes"
    value {
      list {
        shape {
          dim {
            size: 10
          }
        }
        shape {
          dim {
            size: 1
          }
        }
      }
    }
  }
  attr {
    key: "output_types"
    value {
      list {
        type: DT_FLOAT
        type: DT_INT32
      }
    }
  }
}
node {
  name: "batch_size"
  op: "Const"
  device: "/replica:0/task:0/device:CPU:0"
  attr {
    key: "_output_shapes"
    value {
      list {
        shape {
        }
      }
    }
  }
  attr {
    key: "dtype"
    value {
      type: DT_INT64
    }
  }
  attr {
    key: "value"
    value {
      tensor {
        dtype: DT_INT64
        tensor_shape {
        }
        int64_val: 32
      }
    }
  }
}
node {
  name: "drop_remainder"
  op: "Const"
  device: "/replica:0/task:0/device:CPU:0"
  attr {
    key: "_output_shapes"
    value {
      list {
        shape {
        }
      }
    }
  }
  attr {
    key: "dtype"
    value {
      type: DT_BOOL
    }
  }
  attr {
    key: "value"
    value {
      tensor {
        dtype: DT_BOOL
        tensor_shape {
        }
        bool_val: false
      }
    }
  }
}
node {
  name: "BatchDatasetV2"
  op: "BatchDatasetV2"
  input: "RepeatDataset"
  input: "batch_size"
  input: "drop_remainder"
  device: "/replica:0/task:0/device:CPU:0"
  attr {
    key: "_output_shapes"
    value {
      list {
        shape {
        }
      }
    }
  }
  attr {
    key: "output_shapes"
    value {
      list {
        shape {
          dim {
            size: -1
          }
          dim {
            size: 10
          }
        }
        shape {
          dim {
            size: -1
          }
          dim {
            size: 1
          }
        }
      }
    }
  }
  attr {
    key: "output_types"
    value {
      list {
        type: DT_FLOAT
        type: DT_INT32
      }
    }
  }
  attr {
    key: "parallel_copy"
    value {
      b: false
    }
  }
}
node {
  name: "optimizations"
  op: "Const"
  device: "/replica:0/task:0/device:CPU:0"
  attr {
    key: "_output_shapes"
    value {
      list {
        shape {
          dim {
            size: 3
          }
        }
      }
    }
  }
  attr {
    key: "dtype"
    value {
      type: DT_STRING
    }
  }
  attr {
    key: "value"
    value {
      tensor {
        dtype: DT_STRING
        tensor_shape {
          dim {
            size: 3
          }
        }
        string_val: "map_and_batch_fusion"
        string_val: "noop_elimination"
        string_val: "shuffle_and_repeat_fusion"
      }
    }
  }
}
node {
  name: "OptimizeDataset"
  op: "OptimizeDataset"
  input: "BatchDatasetV2"
  input: "optimizations"
  device: "/replica:0/task:0/device:CPU:0"
  attr {
    key: "_output_shapes"
    value {
      list {
        shape {
        }
      }
    }
  }
  attr {
    key: "optimization_configs"
    value {
      list {
        s: "map_vectorization:use_choose_fastest:false"
      }
    }
  }
  attr {
    key: "output_shapes"
    value {
      list {
        shape {
          dim {
            size: -1
          }
          dim {
            size: 10
          }
        }
        shape {
          dim {
            size: -1
          }
          dim {
            size: 1
          }
        }
      }
    }
  }
  attr {
    key: "output_types"
    value {
      list {
        type: DT_FLOAT
        type: DT_INT32
      }
    }
  }
}
node {
  name: "ModelDataset"
  op: "ModelDataset"
  input: "OptimizeDataset"
  device: "/replica:0/task:0/device:CPU:0"
  attr {
    key: "_output_shapes"
    value {
      list {
        shape {
        }
      }
    }
  }
  attr {
    key: "cpu_budget"
    value {
      i: 0
    }
  }
  attr {
    key: "output_shapes"
    value {
      list {
        shape {
          dim {
            size: -1
          }
          dim {
            size: 10
          }
        }
        shape {
          dim {
            size: -1
          }
          dim {
            size: 1
          }
        }
      }
    }
  }
  attr {
    key: "output_types"
    value {
      list {
        type: DT_FLOAT
        type: DT_INT32
      }
    }
  }
}
node {
  name: "Const"
  op: "Const"
  device: "/replica:0/task:0/device:CPU:0"
  attr {
    key: "_output_shapes"
    value {
      list {
        shape {
        }
      }
    }
  }
  attr {
    key: "dtype"
    value {
      type: DT_STRING
    }
  }
  attr {
    key: "value"
    value {
      tensor {
        dtype: DT_STRING
        tensor_shape {
        }
        string_val: "/cpu:0"
      }
    }
  }
}
node {
  name: "MultiDeviceIterator"
  op: "MultiDeviceIterator"
  device: "/replica:0/task:0/device:CPU:0"
  attr {
    key: "_output_shapes"
    value {
      list {
        shape {
        }
      }
    }
  }
  attr {
    key: "container"
    value {
      s: ""
    }
  }
  attr {
    key: "devices"
    value {
      list {
        s: "/replica:0/task:0/device:CPU:0"
      }
    }
  }
  attr {
    key: "output_shapes"
    value {
      list {
        shape {
          dim {
            size: -1
          }
          dim {
            size: 10
          }
        }
        shape {
          dim {
            size: -1
          }
          dim {
            size: 1
          }
        }
      }
    }
  }
  attr {
    key: "output_types"
    value {
      list {
        type: DT_FLOAT
        type: DT_INT32
      }
    }
  }
  attr {
    key: "shared_name"
    value {
      s: ""
    }
  }
}
node {
  name: "MultiDeviceIteratorInit/max_buffer_size"
  op: "Const"
  device: "/replica:0/task:0/device:CPU:0"
  attr {
    key: "_output_shapes"
    value {
      list {
        shape {
        }
      }
    }
  }
  attr {
    key: "dtype"
    value {
      type: DT_INT64
    }
  }
  attr {
    key: "value"
    value {
      tensor {
        dtype: DT_INT64
        tensor_shape {
        }
        int64_val: 1
      }
    }
  }
}
node {
  name: "MultiDeviceIteratorInit"
  op: "MultiDeviceIteratorInit"
  input: "ModelDataset"
  input: "MultiDeviceIterator"
  input: "MultiDeviceIteratorInit/max_buffer_size"
  device: "/replica:0/task:0/device:CPU:0"
  attr {
    key: "_output_shapes"
    value {
      list {
        shape {
        }
      }
    }
  }
}
node {
  name: "MultiDeviceIteratorToStringHandle"
  op: "MultiDeviceIteratorToStringHandle"
  input: "MultiDeviceIterator"
  device: "/replica:0/task:0/device:CPU:0"
  attr {
    key: "_output_shapes"
    value {
      list {
        shape {
        }
      }
    }
  }
}
node {
  name: "GeneratorDataset"
  op: "GeneratorDataset"
  input: "Const"
  input: "MultiDeviceIteratorToStringHandle"
  input: "Const"
  input: "MultiDeviceIteratorInit"
  input: "Const"
  device: "/replica:0/task:0/device:CPU:0"
  attr {
    key: "Tfinalize_func_args"
    value {
      list {
        type: DT_STRING
      }
    }
  }
  attr {
    key: "Tinit_func_args"
    value {
      list {
        type: DT_STRING
        type: DT_STRING
      }
    }
  }
  attr {
    key: "Tnext_func_args"
    value {
      list {
        type: DT_STRING
        type: DT_INT64
      }
    }
  }
  attr {
    key: "_output_shapes"
    value {
      list {
        shape {
        }
      }
    }
  }
  attr {
    key: "finalize_func"
    value {
      func {
        name: "__inference__remote_finalize_func_134"
      }
    }
  }
  attr {
    key: "init_func"
    value {
      func {
        name: "__inference__remote_init_func_104"
      }
    }
  }
  attr {
    key: "next_func"
    value {
      func {
        name: "__inference__remote_next_func_123"
      }
    }
  }
  attr {
    key: "output_shapes"
    value {
      list {
        shape {
          dim {
            size: -1
          }
          dim {
            size: 10
          }
        }
        shape {
          dim {
            size: -1
          }
          dim {
            size: 1
          }
        }
      }
    }
  }
  attr {
    key: "output_types"
    value {
      list {
        type: DT_FLOAT
        type: DT_INT32
      }
    }
  }
}
node {
  name: "GeneratorDataset_1"
  op: "GeneratorDataset"
  input: "Const"
  input: "MultiDeviceIteratorToStringHandle"
  input: "Const"
  input: "MultiDeviceIteratorInit"
  input: "Const"
  device: "/replica:0/task:0/device:CPU:0"
  attr {
    key: "Tfinalize_func_args"
    value {
      list {
        type: DT_STRING
      }
    }
  }
  attr {
    key: "Tinit_func_args"
    value {
      list {
        type: DT_STRING
        type: DT_STRING
      }
    }
  }
  attr {
    key: "Tnext_func_args"
    value {
      list {
        type: DT_STRING
        type: DT_INT64
      }
    }
  }
  attr {
    key: "_output_shapes"
    value {
      list {
        shape {
        }
      }
    }
  }
  attr {
    key: "finalize_func"
    value {
      func {
        name: "__inference__remote_finalize_func_134"
      }
    }
  }
  attr {
    key: "init_func"
    value {
      func {
        name: "__inference__remote_init_func_104"
      }
    }
  }
  attr {
    key: "next_func"
    value {
      func {
        name: "__inference__remote_next_func_123"
      }
    }
  }
  attr {
    key: "output_shapes"
    value {
      list {
        shape {
          dim {
            size: -1
          }
          dim {
            size: 10
          }
        }
        shape {
          dim {
            size: -1
          }
          dim {
            size: 1
          }
        }
      }
    }
  }
  attr {
    key: "output_types"
    value {
      list {
        type: DT_FLOAT
        type: DT_INT32
      }
    }
  }
}
node {
  name: "buffer_size"
  op: "Const"
  device: "/replica:0/task:0/device:CPU:0"
  attr {
    key: "_output_shapes"
    value {
      list {
        shape {
        }
      }
    }
  }
  attr {
    key: "dtype"
    value {
      type: DT_INT64
    }
  }
  attr {
    key: "value"
    value {
      tensor {
        dtype: DT_INT64
        tensor_shape {
        }
        int64_val: 1
      }
    }
  }
}
node {
  name: "PrefetchDataset"
  op: "PrefetchDataset"
  input: "GeneratorDataset_1"
  input: "buffer_size"
  device: "/replica:0/task:0/device:CPU:0"
  attr {
    key: "_output_shapes"
    value {
      list {
        shape {
        }
      }
    }
  }
  attr {
    key: "output_shapes"
    value {
      list {
        shape {
          dim {
            size: -1
          }
          dim {
            size: 10
          }
        }
        shape {
          dim {
            size: -1
          }
          dim {
            size: 1
          }
        }
      }
    }
  }
  attr {
    key: "output_types"
    value {
      list {
        type: DT_FLOAT
        type: DT_INT32
      }
    }
  }
  attr {
    key: "slack_period"
    value {
      i: 0
    }
  }
}
node {
  name: "IteratorV2"
  op: "IteratorV2"
  device: "/replica:0/task:0/device:CPU:0"
  attr {
    key: "_output_shapes"
    value {
      list {
        shape {
        }
      }
    }
  }
  attr {
    key: "container"
    value {
      s: ""
    }
  }
  attr {
    key: "output_shapes"
    value {
      list {
        shape {
          dim {
            size: -1
          }
          dim {
            size: 10
          }
        }
        shape {
          dim {
            size: -1
          }
          dim {
            size: 1
          }
        }
      }
    }
  }
  attr {
    key: "output_types"
    value {
      list {
        type: DT_FLOAT
        type: DT_INT32
      }
    }
  }
  attr {
    key: "shared_name"
    value {
      s: ""
    }
  }
}
node {
  name: "MakeIterator"
  op: "MakeIterator"
  input: "PrefetchDataset"
  input: "IteratorV2"
  device: "/replica:0/task:0/device:CPU:0"
  attr {
    key: "_class"
    value {
      list {
        s: "loc:@IteratorV2"
      }
    }
  }
}
node {
  name: "IteratorToStringHandle"
  op: "IteratorToStringHandle"
  input: "IteratorV2"
  device: "/replica:0/task:0/device:CPU:0"
  attr {
    key: "_output_shapes"
    value {
      list {
        shape {
        }
      }
    }
  }
}
node {
  name: "group_deps"
  op: "NoOp"
  input: "^MakeIterator"
  device: "/replica:0/task:0/device:CPU:0"
}
node {
  name: "global_step/Initializer/zeros"
  op: "Const"
  attr {
    key: "_class"
    value {
      list {
        s: "loc:@global_step"
      }
    }
  }
  attr {
    key: "_output_shapes"
    value {
      list {
        shape {
        }
      }
    }
  }
  attr {
    key: "dtype"
    value {
      type: DT_INT64
    }
  }
  attr {
    key: "value"
    value {
      tensor {
        dtype: DT_INT64
        tensor_shape {
        }
        int64_val: 0
      }
    }
  }
}
node {
  name: "global_step"
  op: "VarHandleOp"
  device: "/replica:0/task:0/device:CPU:0"
  attr {
    key: "_class"
    value {
      list {
        s: "loc:@global_step"
      }
    }
  }
  attr {
    key: "_output_shapes"
    value {
      list {
        shape {
        }
      }
    }
  }
  attr {
    key: "container"
    value {
      s: ""
    }
  }
  attr {
    key: "dtype"
    value {
      type: DT_INT64
    }
  }
  attr {
    key: "shape"
    value {
      shape {
      }
    }
  }
  attr {
    key: "shared_name"
    value {
      s: "global_step"
    }
  }
}
node {
  name: "global_step/IsInitialized/VarIsInitializedOp"
  op: "VarIsInitializedOp"
  input: "global_step"
  device: "/replica:0/task:0/device:CPU:0"
  attr {
    key: "_output_shapes"
    value {
      list {
        shape {
        }
      }
    }
  }
}
node {
  name: "global_step/Assign"
  op: "AssignVariableOp"
  input: "global_step"
  input: "global_step/Initializer/zeros"
  device: "/replica:0/task:0/device:CPU:0"
  attr {
    key: "_class"
    value {
      list {
        s: "loc:@global_step"
      }
    }
  }
  attr {
    key: "dtype"
    value {
      type: DT_INT64
    }
  }
}
node {
  name: "global_step/Read/ReadVariableOp"
  op: "ReadVariableOp"
  input: "global_step"
  device: "/replica:0/task:0/device:CPU:0"
  attr {
    key: "_class"
    value {
      list {
        s: "loc:@global_step"
      }
    }
  }
  attr {
    key: "_output_shapes"
    value {
      list {
        shape {
        }
      }
    }
  }
  attr {
    key: "dtype"
    value {
      type: DT_INT64
    }
  }
}
node {
  name: "Identity/ReadVariableOp"
  op: "ReadVariableOp"
  input: "global_step"
  device: "/replica:0/task:0/device:CPU:0"
  attr {
    key: "_output_shapes"
    value {
      list {
        shape {
        }
      }
    }
  }
  attr {
    key: "dtype"
    value {
      type: DT_INT64
    }
  }
}
node {
  name: "Identity"
  op: "Identity"
  input: "Identity/ReadVariableOp"
  attr {
    key: "T"
    value {
      type: DT_INT64
    }
  }
  attr {
    key: "_output_shapes"
    value {
      list {
        shape {
        }
      }
    }
  }
}
node {
  name: "Identity_1"
  op: "Identity"
  input: "Identity"
  attr {
    key: "T"
    value {
      type: DT_INT64
    }
  }
  attr {
    key: "_output_shapes"
    value {
      list {
        shape {
        }
      }
    }
  }
}
node {
  name: "IteratorGetNext"
  op: "IteratorGetNext"
  input: "IteratorV2"
  device: "/replica:0/task:0/device:CPU:0"
  attr {
    key: "_output_shapes"
    value {
      list {
        shape {
          dim {
            size: -1
          }
          dim {
            size: 10
          }
        }
        shape {
          dim {
            size: -1
          }
          dim {
            size: 1
          }
        }
      }
    }
  }
  attr {
    key: "output_shapes"
    value {
      list {
        shape {
          dim {
            size: -1
          }
          dim {
            size: 10
          }
        }
        shape {
          dim {
            size: -1
          }
          dim {
            size: 1
          }
        }
      }
    }
  }
  attr {
    key: "output_types"
    value {
      list {
        type: DT_FLOAT
        type: DT_INT32
      }
    }
  }
}
node {
  name: "Const_1"
  op: "Const"
  attr {
    key: "_output_shapes"
    value {
      list {
        shape {
        }
      }
    }
  }
  attr {
    key: "dtype"
    value {
      type: DT_INT32
    }
  }
  attr {
    key: "value"
    value {
      tensor {
        dtype: DT_INT32
        tensor_shape {
        }
        int_val: 0
      }
    }
  }
}
node {
  name: "Cast_1"
  op: "Cast"
  input: "IteratorGetNext:1"
  device: "/replica:0/task:0/device:CPU:0"
  attr {
    key: "DstT"
    value {
      type: DT_FLOAT
    }
  }
  attr {
    key: "SrcT"
    value {
      type: DT_INT32
    }
  }
  attr {
    key: "Truncate"
    value {
      b: false
    }
  }
  attr {
    key: "_output_shapes"
    value {
      list {
        shape {
          dim {
            size: -1
          }
          dim {
            size: 1
          }
        }
      }
    }
  }
}
node {
  name: "dense/kernel/Initializer/random_uniform/shape"
  op: "Const"
  attr {
    key: "_class"
    value {
      list {
        s: "loc:@dense/kernel"
      }
    }
  }
  attr {
    key: "_output_shapes"
    value {
      list {
        shape {
          dim {
            size: 2
          }
        }
      }
    }
  }
  attr {
    key: "dtype"
    value {
      type: DT_INT32
    }
  }
  attr {
    key: "value"
    value {
      tensor {
        dtype: DT_INT32
        tensor_shape {
          dim {
            size: 2
          }
        }
        tensor_content: "\n\000\000\000\020\000\000\000"
      }
    }
  }
}
node {
  name: "dense/kernel/Initializer/random_uniform/min"
  op: "Const"
  attr {
    key: "_class"
    value {
      list {
        s: "loc:@dense/kernel"
      }
    }
  }
  attr {
    key: "_output_shapes"
    value {
      list {
        shape {
        }
      }
    }
  }
  attr {
    key: "dtype"
    value {
      type: DT_FLOAT
    }
  }
  attr {
    key: "value"
    value {
      tensor {
        dtype: DT_FLOAT
        tensor_shape {
        }
        float_val: -0.4803844690322876
      }
    }
  }
}
node {
  name: "dense/kernel/Initializer/random_uniform/max"
  op: "Const"
  attr {
    key: "_class"
    value {
      list {
        s: "loc:@dense/kernel"
      }
    }
  }
  attr {
    key: "_output_shapes"
    value {
      list {
        shape {
        }
      }
    }
  }
  attr {
    key: "dtype"
    value {
      type: DT_FLOAT
    }
  }
  attr {
    key: "value"
    value {
      tensor {
        dtype: DT_FLOAT
        tensor_shape {
        }
        float_val: 0.4803844690322876
      }
    }
  }
}
node {
  name: "dense/kernel/Initializer/random_uniform/RandomUniform"
  op: "RandomUniform"
  input: "dense/kernel/Initializer/random_uniform/shape"
  attr {
    key: "T"
    value {
      type: DT_INT32
    }
  }
  attr {
    key: "_class"
    value {
      list {
        s: "loc:@dense/kernel"
      }
    }
  }
  attr {
    key: "_output_shapes"
    value {
      list {
        shape {
          dim {
            size: 10
          }
          dim {
            size: 16
          }
        }
      }
    }
  }
  attr {
    key: "dtype"
    value {
      type: DT_FLOAT
    }
  }
  attr {
    key: "seed"
    value {
      i: 0
    }
  }
  attr {
    key: "seed2"
    value {
      i: 0
    }
  }
}
node {
  name: "dense/kernel/Initializer/random_uniform/sub"
  op: "Sub"
  input: "dense/kernel/Initializer/random_uniform/max"
  input: "dense/kernel/Initializer/random_uniform/min"
  attr {
    key: "T"
    value {
      type: DT_FLOAT
    }
  }
  attr {
    key: "_class"
    value {
      list {
        s: "loc:@dense/kernel"
      }
    }
  }
  attr {
    key: "_output_shapes"
    value {
      list {
        shape {
        }
      }
    }
  }
}
node {
  name: "dense/kernel/Initializer/random_uniform/mul"
  op: "Mul"
  input: "dense/kernel/Initializer/random_uniform/RandomUniform"
  input: "dense/kernel/Initializer/random_uniform/sub"
  attr {
    key: "T"
    value {
      type: DT_FLOAT
    }
  }
  attr {
    key: "_class"
    value {
      list {
        s: "loc:@dense/kernel"
      }
    }
  }
  attr {
    key: "_output_shapes"
    value {
      list {
        shape {
          dim {
            size: 10
          }
          dim {
            size: 16
          }
        }
      }
    }
  }
}
node {
  name: "dense/kernel/Initializer/random_uniform"
  op: "Add"
  input: "dense/kernel/Initializer/random_uniform/mul"
  input: "dense/kernel/Initializer/random_uniform/min"
  attr {
    key: "T"
    value {
      type: DT_FLOAT
    }
  }
  attr {
    key: "_class"
    value {
      list {
        s: "loc:@dense/kernel"
      }
    }
  }
  attr {
    key: "_output_shapes"
    value {
      list {
        shape {
          dim {
            size: 10
          }
          dim {
            size: 16
          }
        }
      }
    }
  }
}
node {
  name: "dense/kernel"
  op: "VarHandleOp"
  device: "/replica:0/task:0/device:CPU:0"
  attr {
    key: "_class"
    value {
      list {
        s: "loc:@dense/kernel"
      }
    }
  }
  attr {
    key: "_output_shapes"
    value {
      list {
        shape {
        }
      }
    }
  }
  attr {
    key: "container"
    value {
      s: ""
    }
  }
  attr {
    key: "dtype"
    value {
      type: DT_FLOAT
    }
  }
  attr {
    key: "shape"
    value {
      shape {
        dim {
          size: 10
        }
        dim {
          size: 16
        }
      }
    }
  }
  attr {
    key: "shared_name"
    value {
      s: "dense/kernel"
    }
  }
}
node {
  name: "dense/kernel/IsInitialized/VarIsInitializedOp"
  op: "VarIsInitializedOp"
  input: "dense/kernel"
  device: "/replica:0/task:0/device:CPU:0"
  attr {
    key: "_output_shapes"
    value {
      list {
        shape {
        }
      }
    }
  }
}
node {
  name: "dense/kernel/Assign"
  op: "AssignVariableOp"
  input: "dense/kernel"
  input: "dense/kernel/Initializer/random_uniform"
  device: "/replica:0/task:0/device:CPU:0"
  attr {
    key: "_class"
    value {
      list {
        s: "loc:@dense/kernel"
      }
    }
  }
  attr {
    key: "dtype"
    value {
      type: DT_FLOAT
    }
  }
}
node {
  name: "dense/kernel/Read/ReadVariableOp"
  op: "ReadVariableOp"
  input: "dense/kernel"
  device: "/replica:0/task:0/device:CPU:0"
  attr {
    key: "_class"
    value {
      list {
        s: "loc:@dense/kernel"
      }
    }
  }
  attr {
    key: "_output_shapes"
    value {
      list {
        shape {
          dim {
            size: 10
          }
          dim {
            size: 16
          }
        }
      }
    }
  }
  attr {
    key: "dtype"
    value {
      type: DT_FLOAT
    }
  }
}
node {
  name: "dense/bias/Initializer/zeros"
  op: "Const"
  attr {
    key: "_class"
    value {
      list {
        s: "loc:@dense/bias"
      }
    }
  }
  attr {
    key: "_output_shapes"
    value {
      list {
        shape {
          dim {
            size: 16
          }
        }
      }
    }
  }
  attr {
    key: "dtype"
    value {
      type: DT_FLOAT
    }
  }
  attr {
    key: "value"
    value {
      tensor {
        dtype: DT_FLOAT
        tensor_shape {
          dim {
            size: 16
          }
        }
        float_val: 0.0
      }
    }
  }
}
node {
  name: "dense/bias"
  op: "VarHandleOp"
  device: "/replica:0/task:0/device:CPU:0"
  attr {
    key: "_class"
    value {
      list {
        s: "loc:@dense/bias"
      }
    }
  }
  attr {
    key: "_output_shapes"
    value {
      list {
        shape {
        }
      }
    }
  }
  attr {
    key: "container"
    value {
      s: ""
    }
  }
  attr {
    key: "dtype"
    value {
      type: DT_FLOAT
    }
  }
  attr {
    key: "shape"
    value {
      shape {
        dim {
          size: 16
        }
      }
    }
  }
  attr {
    key: "shared_name"
    value {
      s: "dense/bias"
    }
  }
}
node {
  name: "dense/bias/IsInitialized/VarIsInitializedOp"
  op: "VarIsInitializedOp"
  input: "dense/bias"
  device: "/replica:0/task:0/device:CPU:0"
  attr {
    key: "_output_shapes"
    value {
      list {
        shape {
        }
      }
    }
  }
}
node {
  name: "dense/bias/Assign"
  op: "AssignVariableOp"
  input: "dense/bias"
  input: "dense/bias/Initializer/zeros"
  device: "/replica:0/task:0/device:CPU:0"
  attr {
    key: "_class"
    value {
      list {
        s: "loc:@dense/bias"
      }
    }
  }
  attr {
    key: "dtype"
    value {
      type: DT_FLOAT
    }
  }
}
node {
  name: "dense/bias/Read/ReadVariableOp"
  op: "ReadVariableOp"
  input: "dense/bias"
  device: "/replica:0/task:0/device:CPU:0"
  attr {
    key: "_class"
    value {
      list {
        s: "loc:@dense/bias"
      }
    }
  }
  attr {
    key: "_output_shapes"
    value {
      list {
        shape {
          dim {
            size: 16
          }
        }
      }
    }
  }
  attr {
    key: "dtype"
    value {
      type: DT_FLOAT
    }
  }
}
node {
  name: "dense/MatMul/ReadVariableOp"
  op: "ReadVariableOp"
  input: "dense/kernel"
  device: "/replica:0/task:0/device:CPU:0"
  attr {
    key: "_output_shapes"
    value {
      list {
        shape {
          dim {
            size: 10
          }
          dim {
            size: 16
          }
        }
      }
    }
  }
  attr {
    key: "dtype"
    value {
      type: DT_FLOAT
    }
  }
}
node {
  name: "dense/MatMul"
  op: "MatMul"
  input: "IteratorGetNext"
  input: "dense/MatMul/ReadVariableOp"
  device: "/replica:0/task:0/device:CPU:0"
  attr {
    key: "T"
    value {
      type: DT_FLOAT
    }
  }
  attr {
    key: "_output_shapes"
    value {
      list {
        shape {
          dim {
            size: -1
          }
          dim {
            size: 16
          }
        }
      }
    }
  }
  attr {
    key: "transpose_a"
    value {
      b: false
    }
  }
  attr {
    key: "transpose_b"
    value {
      b: false
    }
  }
}
node {
  name: "dense/BiasAdd/ReadVariableOp"
  op: "ReadVariableOp"
  input: "dense/bias"
  device: "/replica:0/task:0/device:CPU:0"
  attr {
    key: "_output_shapes"
    value {
      list {
        shape {
          dim {
            size: 16
          }
        }
      }
    }
  }
  attr {
    key: "dtype"
    value {
      type: DT_FLOAT
    }
  }
}
node {
  name: "dense/BiasAdd"
  op: "BiasAdd"
  input: "dense/MatMul"
  input: "dense/BiasAdd/ReadVariableOp"
  device: "/replica:0/task:0/device:CPU:0"
  attr {
    key: "T"
    value {
      type: DT_FLOAT
    }
  }
  attr {
    key: "_output_shapes"
    value {
      list {
        shape {
          dim {
            size: -1
          }
          dim {
            size: 16
          }
        }
      }
    }
  }
  attr {
    key: "data_format"
    value {
      s: "NHWC"
    }
  }
}
node {
  name: "dense/Relu"
  op: "Relu"
  input: "dense/BiasAdd"
  device: "/replica:0/task:0/device:CPU:0"
  attr {
    key: "T"
    value {
      type: DT_FLOAT
    }
  }
  attr {
    key: "_output_shapes"
    value {
      list {
        shape {
          dim {
            size: -1
          }
          dim {
            size: 16
          }
        }
      }
    }
  }
}
node {
  name: "dense_1/kernel/Initializer/random_uniform/shape"
  op: "Const"
  attr {
    key: "_class"
    value {
      list {
        s: "loc:@dense_1/kernel"
      }
    }
  }
  attr {
    key: "_output_shapes"
    value {
      list {
        shape {
          dim {
            size: 2
          }
        }
      }
    }
  }
  attr {
    key: "dtype"
    value {
      type: DT_INT32
    }
  }
  attr {
    key: "value"
    value {
      tensor {
        dtype: DT_INT32
        tensor_shape {
          dim {
            size: 2
          }
        }
        tensor_content: "\020\000\000\000\001\000\000\000"
      }
    }
  }
}
node {
  name: "dense_1/kernel/Initializer/random_uniform/min"
  op: "Const"
  attr {
    key: "_class"
    value {
      list {
        s: "loc:@dense_1/kernel"
      }
    }
  }
  attr {
    key: "_output_shapes"
    value {
      list {
        shape {
        }
      }
    }
  }
  attr {
    key: "dtype"
    value {
      type: DT_FLOAT
    }
  }
  attr {
    key: "value"
    value {
      tensor {
        dtype: DT_FLOAT
        tensor_shape {
        }
        float_val: -0.5940885543823242
      }
    }
  }
}
node {
  name: "dense_1/kernel/Initializer/random_uniform/max"
  op: "Const"
  attr {
    key: "_class"
    value {
      list {
        s: "loc:@dense_1/kernel"
      }
    }
  }
  attr {
    key: "_output_shapes"
    value {
      list {
        shape {
        }
      }
    }
  }
  attr {
    key: "dtype"
    value {
      type: DT_FLOAT
    }
  }
  attr {
    key: "value"
    value {
      tensor {
        dtype: DT_FLOAT
        tensor_shape {
        }
        float_val: 0.5940885543823242
      }
    }
  }
}
node {
  name: "dense_1/kernel/Initializer/random_uniform/RandomUniform"
  op: "RandomUniform"
  input: "dense_1/kernel/Initializer/random_uniform/shape"
  attr {
    key: "T"
    value {
      type: DT_INT32
    }
  }
  attr {
    key: "_class"
    value {
      list {
        s: "loc:@dense_1/kernel"
      }
    }
  }
  attr {
    key: "_output_shapes"
    value {
      list {
        shape {
          dim {
            size: 16
          }
          dim {
            size: 1
          }
        }
      }
    }
  }
  attr {
    key: "dtype"
    value {
      type: DT_FLOAT
    }
  }
  attr {
    key: "seed"
    value {
      i: 0
    }
  }
  attr {
    key: "seed2"
    value {
      i: 0
    }
  }
}
node {
  name: "dense_1/kernel/Initializer/random_uniform/sub"
  op: "Sub"
  input: "dense_1/kernel/Initializer/random_uniform/max"
  input: "dense_1/kernel/Initializer/random_uniform/min"
  attr {
    key: "T"
    value {
      type: DT_FLOAT
    }
  }
  attr {
    key: "_class"
    value {
      list {
        s: "loc:@dense_1/kernel"
      }
    }
  }
  attr {
    key: "_output_shapes"
    value {
      list {
        shape {
        }
      }
    }
  }
}
node {
  name: "dense_1/kernel/Initializer/random_uniform/mul"
  op: "Mul"
  input: "dense_1/kernel/Initializer/random_uniform/RandomUniform"
  input: "dense_1/kernel/Initializer/random_uniform/sub"
  attr {
    key: "T"
    value {
      type: DT_FLOAT
    }
  }
  attr {
    key: "_class"
    value {
      list {
        s: "loc:@dense_1/kernel"
      }
    }
  }
  attr {
    key: "_output_shapes"
    value {
      list {
        shape {
          dim {
            size: 16
          }
          dim {
            size: 1
          }
        }
      }
    }
  }
}
node {
  name: "dense_1/kernel/Initializer/random_uniform"
  op: "Add"
  input: "dense_1/kernel/Initializer/random_uniform/mul"
  input: "dense_1/kernel/Initializer/random_uniform/min"
  attr {
    key: "T"
    value {
      type: DT_FLOAT
    }
  }
  attr {
    key: "_class"
    value {
      list {
        s: "loc:@dense_1/kernel"
      }
    }
  }
  attr {
    key: "_output_shapes"
    value {
      list {
        shape {
          dim {
            size: 16
          }
          dim {
            size: 1
          }
        }
      }
    }
  }
}
node {
  name: "dense_1/kernel"
  op: "VarHandleOp"
  device: "/replica:0/task:0/device:CPU:0"
  attr {
    key: "_class"
    value {
      list {
        s: "loc:@dense_1/kernel"
      }
    }
  }
  attr {
    key: "_output_shapes"
    value {
      list {
        shape {
        }
      }
    }
  }
  attr {
    key: "container"
    value {
      s: ""
    }
  }
  attr {
    key: "dtype"
    value {
      type: DT_FLOAT
    }
  }
  attr {
    key: "shape"
    value {
      shape {
        dim {
          size: 16
        }
        dim {
          size: 1
        }
      }
    }
  }
  attr {
    key: "shared_name"
    value {
      s: "dense_1/kernel"
    }
  }
}
node {
  name: "dense_1/kernel/IsInitialized/VarIsInitializedOp"
  op: "VarIsInitializedOp"
  input: "dense_1/kernel"
  device: "/replica:0/task:0/device:CPU:0"
  attr {
    key: "_output_shapes"
    value {
      list {
        shape {
        }
      }
    }
  }
}
node {
  name: "dense_1/kernel/Assign"
  op: "AssignVariableOp"
  input: "dense_1/kernel"
  input: "dense_1/kernel/Initializer/random_uniform"
  device: "/replica:0/task:0/device:CPU:0"
  attr {
    key: "_class"
    value {
      list {
        s: "loc:@dense_1/kernel"
      }
    }
  }
  attr {
    key: "dtype"
    value {
      type: DT_FLOAT
    }
  }
}
node {
  name: "dense_1/kernel/Read/ReadVariableOp"
  op: "ReadVariableOp"
  input: "dense_1/kernel"
  device: "/replica:0/task:0/device:CPU:0"
  attr {
    key: "_class"
    value {
      list {
        s: "loc:@dense_1/kernel"
      }
    }
  }
  attr {
    key: "_output_shapes"
    value {
      list {
        shape {
          dim {
            size: 16
          }
          dim {
            size: 1
          }
        }
      }
    }
  }
  attr {
    key: "dtype"
    value {
      type: DT_FLOAT
    }
  }
}
node {
  name: "dense_1/bias/Initializer/zeros"
  op: "Const"
  attr {
    key: "_class"
    value {
      list {
        s: "loc:@dense_1/bias"
      }
    }
  }
  attr {
    key: "_output_shapes"
    value {
      list {
        shape {
          dim {
            size: 1
          }
        }
      }
    }
  }
  attr {
    key: "dtype"
    value {
      type: DT_FLOAT
    }
  }
  attr {
    key: "value"
    value {
      tensor {
        dtype: DT_FLOAT
        tensor_shape {
          dim {
            size: 1
          }
        }
        float_val: 0.0
      }
    }
  }
}
node {
  name: "dense_1/bias"
  op: "VarHandleOp"
  device: "/replica:0/task:0/device:CPU:0"
  attr {
    key: "_class"
    value {
      list {
        s: "loc:@dense_1/bias"
      }
    }
  }
  attr {
    key: "_output_shapes"
    value {
      list {
        shape {
        }
      }
    }
  }
  attr {
    key: "container"
    value {
      s: ""
    }
  }
  attr {
    key: "dtype"
    value {
      type: DT_FLOAT
    }
  }
  attr {
    key: "shape"
    value {
      shape {
        dim {
          size: 1
        }
      }
    }
  }
  attr {
    key: "shared_name"
    value {
      s: "dense_1/bias"
    }
  }
}
node {
  name: "dense_1/bias/IsInitialized/VarIsInitializedOp"
  op: "VarIsInitializedOp"
  input: "dense_1/bias"
  device: "/replica:0/task:0/device:CPU:0"
  attr {
    key: "_output_shapes"
    value {
      list {
        shape {
        }
      }
    }
  }
}
node {
  name: "dense_1/bias/Assign"
  op: "AssignVariableOp"
  input: "dense_1/bias"
  input: "dense_1/bias/Initializer/zeros"
  device: "/replica:0/task:0/device:CPU:0"
  attr {
    key: "_class"
    value {
      list {
        s: "loc:@dense_1/bias"
      }
    }
  }
  attr {
    key: "dtype"
    value {
      type: DT_FLOAT
    }
  }
}
node {
  name: "dense_1/bias/Read/ReadVariableOp"
  op: "ReadVariableOp"
  input: "dense_1/bias"
  device: "/replica:0/task:0/device:CPU:0"
  attr {
    key: "_class"
    value {
      list {
        s: "loc:@dense_1/bias"
      }
    }
  }
  attr {
    key: "_output_shapes"
    value {
      list {
        shape {
          dim {
            size: 1
          }
        }
      }
    }
  }
  attr {
    key: "dtype"
    value {
      type: DT_FLOAT
    }
  }
}
node {
  name: "dense_1/MatMul/ReadVariableOp"
  op: "ReadVariableOp"
  input: "dense_1/kernel"
  device: "/replica:0/task:0/device:CPU:0"
  attr {
    key: "_output_shapes"
    value {
      list {
        shape {
          dim {
            size: 16
          }
          dim {
            size: 1
          }
        }
      }
    }
  }
  attr {
    key: "dtype"
    value {
      type: DT_FLOAT
    }
  }
}
node {
  name: "dense_1/MatMul"
  op: "MatMul"
  input: "dense/Relu"
  input: "dense_1/MatMul/ReadVariableOp"
  device: "/replica:0/task:0/device:CPU:0"
  attr {
    key: "T"
    value {
      type: DT_FLOAT
    }
  }
  attr {
    key: "_output_shapes"
    value {
      list {
        shape {
          dim {
            size: -1
          }
          dim {
            size: 1
          }
        }
      }
    }
  }
  attr {
    key: "transpose_a"
    value {
      b: false
    }
  }
  attr {
    key: "transpose_b"
    value {
      b: false
    }
  }
}
node {
  name: "dense_1/BiasAdd/ReadVariableOp"
  op: "ReadVariableOp"
  input: "dense_1/bias"
  device: "/replica:0/task:0/device:CPU:0"
  attr {
    key: "_output_shapes"
    value {
      list {
        shape {
          dim {
            size: 1
          }
        }
      }
    }
  }
  attr {
    key: "dtype"
    value {
      type: DT_FLOAT
    }
  }
}
node {
  name: "dense_1/BiasAdd"
  op: "BiasAdd"
  input: "dense_1/MatMul"
  input: "dense_1/BiasAdd/ReadVariableOp"
  device: "/replica:0/task:0/device:CPU:0"
  attr {
    key: "T"
    value {
      type: DT_FLOAT
    }
  }
  attr {
    key: "_output_shapes"
    value {
      list {
        shape {
          dim {
            size: -1
          }
          dim {
            size: 1
          }
        }
      }
    }
  }
  attr {
    key: "data_format"
    value {
      s: "NHWC"
    }
  }
}
node {
  name: "dense_1/Sigmoid"
  op: "Sigmoid"
  input: "dense_1/BiasAdd"
  device: "/replica:0/task:0/device:CPU:0"
  attr {
    key: "T"
    value {
      type: DT_FLOAT
    }
  }
  attr {
    key: "_output_shapes"
    value {
      list {
        shape {
          dim {
            size: -1
          }
          dim {
            size: 1
          }
        }
      }
    }
  }
}
node {
  name: "loss/dense_1_loss/Const"
  op: "Const"
  device: "/replica:0/task:0/device:CPU:0"
  attr {
    key: "_output_shapes"
    value {
      list {
        shape {
        }
      }
    }
  }
  attr {
    key: "dtype"
    value {
      type: DT_FLOAT
    }
  }
  attr {
    key: "value"
    value {
      tensor {
        dtype: DT_FLOAT
        tensor_shape {
        }
        float_val: 0.0
      }
    }
  }
}
node {
  name: "loss/dense_1_loss/logistic_loss/zeros_like"
  op: "ZerosLike"
  input: "dense_1/BiasAdd"
  device: "/replica:0/task:0/device:CPU:0"
  attr {
    key: "T"
    value {
      type: DT_FLOAT
    }
  }
  attr {
    key: "_output_shapes"
    value {
      list {
        shape {
          dim {
            size: -1
          }
          dim {
            size: 1
          }
        }
      }
    }
  }
}
node {
  name: "loss/dense_1_loss/logistic_loss/GreaterEqual"
  op: "GreaterEqual"
  input: "dense_1/BiasAdd"
  input: "loss/dense_1_loss/logistic_loss/zeros_like"
  device: "/replica:0/task:0/device:CPU:0"
  attr {
    key: "T"
    value {
      type: DT_FLOAT
    }
  }
  attr {
    key: "_output_shapes"
    value {
      list {
        shape {
          dim {
            size: -1
          }
          dim {
            size: 1
          }
        }
      }
    }
  }
}
node {
  name: "loss/dense_1_loss/logistic_loss/Select"
  op: "Select"
  input: "loss/dense_1_loss/logistic_loss/GreaterEqual"
  input: "dense_1/BiasAdd"
  input: "loss/dense_1_loss/logistic_loss/zeros_like"
  device: "/replica:0/task:0/device:CPU:0"
  attr {
    key: "T"
    value {
      type: DT_FLOAT
    }
  }
  attr {
    key: "_output_shapes"
    value {
      list {
        shape {
          dim {
            size: -1
          }
          dim {
            size: 1
          }
        }
      }
    }
  }
}
node {
  name: "loss/dense_1_loss/logistic_loss/Neg"
  op: "Neg"
  input: "dense_1/BiasAdd"
  device: "/replica:0/task:0/device:CPU:0"
  attr {
    key: "T"
    value {
      type: DT_FLOAT
    }
  }
  attr {
    key: "_output_shapes"
    value {
      list {
        shape {
          dim {
            size: -1
          }
          dim {
            size: 1
          }
        }
      }
    }
  }
}
node {
  name: "loss/dense_1_loss/logistic_loss/Select_1"
  op: "Select"
  input: "loss/dense_1_loss/logistic_loss/GreaterEqual"
  input: "loss/dense_1_loss/logistic_loss/Neg"
  input: "dense_1/BiasAdd"
  device: "/replica:0/task:0/device:CPU:0"
  attr {
    key: "T"
    value {
      type: DT_FLOAT
    }
  }
  attr {
    key: "_output_shapes"
    value {
      list {
        shape {
          dim {
            size: -1
          }
          dim {
            size: 1
          }
        }
      }
    }
  }
}
node {
  name: "loss/dense_1_loss/logistic_loss/mul"
  op: "Mul"
  input: "dense_1/BiasAdd"
  input: "Cast_1"
  device: "/replica:0/task:0/device:CPU:0"
  attr {
    key: "T"
    value {
      type: DT_FLOAT
    }
  }
  attr {
    key: "_output_shapes"
    value {
      list {
        shape {
          dim {
            size: -1
          }
          dim {
            size: 1
          }
        }
      }
    }
  }
}
node {
  name: "loss/dense_1_loss/logistic_loss/sub"
  op: "Sub"
  input: "loss/dense_1_loss/logistic_loss/Select"
  input: "loss/dense_1_loss/logistic_loss/mul"
  device: "/replica:0/task:0/device:CPU:0"
  attr {
    key: "T"
    value {
      type: DT_FLOAT
    }
  }
  attr {
    key: "_output_shapes"
    value {
      list {
        shape {
          dim {
            size: -1
          }
          dim {
            size: 1
          }
        }
      }
    }
  }
}
node {
  name: "loss/dense_1_loss/logistic_loss/Exp"
  op: "Exp"
  input: "loss/dense_1_loss/logistic_loss/Select_1"
  device: "/replica:0/task:0/device:CPU:0"
  attr {
    key: "T"
    value {
      type: DT_FLOAT
    }
  }
  attr {
    key: "_output_shapes"
    value {
      list {
        shape {
          dim {
            size: -1
          }
          dim {
            size: 1
          }
        }
      }
    }
  }
}
node {
  name: "loss/dense_1_loss/logistic_loss/Log1p"
  op: "Log1p"
  input: "loss/dense_1_loss/logistic_loss/Exp"
  device: "/replica:0/task:0/device:CPU:0"
  attr {
    key: "T"
    value {
      type: DT_FLOAT
    }
  }
  attr {
    key: "_output_shapes"
    value {
      list {
        shape {
          dim {
            size: -1
          }
          dim {
            size: 1
          }
        }
      }
    }
  }
}
node {
  name: "loss/dense_1_loss/logistic_loss"
  op: "Add"
  input: "loss/dense_1_loss/logistic_loss/sub"
  input: "loss/dense_1_loss/logistic_loss/Log1p"
  device: "/replica:0/task:0/device:CPU:0"
  attr {
    key: "T"
    value {
      type: DT_FLOAT
    }
  }
  attr {
    key: "_output_shapes"
    value {
      list {
        shape {
          dim {
            size: -1
          }
          dim {
            size: 1
          }
        }
      }
    }
  }
}
node {
  name: "loss/dense_1_loss/Mean/reduction_indices"
  op: "Const"
  device: "/replica:0/task:0/device:CPU:0"
  attr {
    key: "_output_shapes"
    value {
      list {
        shape {
        }
      }
    }
  }
  attr {
    key: "dtype"
    value {
      type: DT_INT32
    }
  }
  attr {
    key: "value"
    value {
      tensor {
        dtype: DT_INT32
        tensor_shape {
        }
        int_val: -1
      }
    }
  }
}
node {
  name: "loss/dense_1_loss/Mean"
  op: "Mean"
  input: "loss/dense_1_loss/logistic_loss"
  input: "loss/dense_1_loss/Mean/reduction_indices"
  device: "/replica:0/task:0/device:CPU:0"
  attr {
    key: "T"
    value {
      type: DT_FLOAT
    }
  }
  attr {
    key: "Tidx"
    value {
      type: DT_INT32
    }
  }
  attr {
    key: "_output_shapes"
    value {
      list {
        shape {
          dim {
            size: -1
          }
        }
      }
    }
  }
  attr {
    key: "keep_dims"
    value {
      b: false
    }
  }
}
node {
  name: "loss/dense_1_loss/weighted_loss/Const"
  op: "Const"
  device: "/replica:0/task:0/device:CPU:0"
  attr {
    key: "_output_shapes"
    value {
      list {
        shape {
        }
      }
    }
  }
  attr {
    key: "dtype"
    value {
      type: DT_FLOAT
    }
  }
  attr {
    key: "value"
    value {
      tensor {
        dtype: DT_FLOAT
        tensor_shape {
        }
        float_val: 1.0
      }
    }
  }
}
node {
  name: "loss/dense_1_loss/weighted_loss/broadcast_weights/assert_broadcastable/weights/shape"
  op: "Const"
  device: "/replica:0/task:0/device:CPU:0"
  attr {
    key: "_output_shapes"
    value {
      list {
        shape {
          dim {
          }
        }
      }
    }
  }
  attr {
    key: "dtype"
    value {
      type: DT_INT32
    }
  }
  attr {
    key: "value"
    value {
      tensor {
        dtype: DT_INT32
        tensor_shape {
          dim {
          }
        }
      }
    }
  }
}
node {
  name: "loss/dense_1_loss/weighted_loss/broadcast_weights/assert_broadcastable/weights/rank"
  op: "Const"
  device: "/replica:0/task:0/device:CPU:0"
  attr {
    key: "_output_shapes"
    value {
      list {
        shape {
        }
      }
    }
  }
  attr {
    key: "dtype"
    value {
      type: DT_INT32
    }
  }
  attr {
    key: "value"
    value {
      tensor {
        dtype: DT_INT32
        tensor_shape {
        }
        int_val: 0
      }
    }
  }
}
node {
  name: "loss/dense_1_loss/weighted_loss/broadcast_weights/assert_broadcastable/values/shape"
  op: "Shape"
  input: "loss/dense_1_loss/Mean"
  device: "/replica:0/task:0/device:CPU:0"
  attr {
    key: "T"
    value {
      type: DT_FLOAT
    }
  }
  attr {
    key: "_output_shapes"
    value {
      list {
        shape {
          dim {
            size: 1
          }
        }
      }
    }
  }
  attr {
    key: "out_type"
    value {
      type: DT_INT32
    }
  }
}
node {
  name: "loss/dense_1_loss/weighted_loss/broadcast_weights/assert_broadcastable/values/rank"
  op: "Const"
  device: "/replica:0/task:0/device:CPU:0"
  attr {
    key: "_output_shapes"
    value {
      list {
        shape {
        }
      }
    }
  }
  attr {
    key: "dtype"
    value {
      type: DT_INT32
    }
  }
  attr {
    key: "value"
    value {
      tensor {
        dtype: DT_INT32
        tensor_shape {
        }
        int_val: 1
      }
    }
  }
}
node {
  name: "loss/dense_1_loss/weighted_loss/broadcast_weights/assert_broadcastable/static_scalar_check_success"
  op: "NoOp"
  device: "/replica:0/task:0/device:CPU:0"
}
node {
  name: "loss/dense_1_loss/weighted_loss/broadcast_weights/ones_like/Shape"
  op: "Shape"
  input: "loss/dense_1_loss/Mean"
  input: "^loss/dense_1_loss/weighted_loss/broadcast_weights/assert_broadcastable/static_scalar_check_success"
  device: "/replica:0/task:0/device:CPU:0"
  attr {
    key: "T"
    value {
      type: DT_FLOAT
    }
  }
  attr {
    key: "_output_shapes"
    value {
      list {
        shape {
          dim {
            size: 1
          }
        }
      }
    }
  }
  attr {
    key: "out_type"
    value {
      type: DT_INT32
    }
  }
}
node {
  name: "loss/dense_1_loss/weighted_loss/broadcast_weights/ones_like/Const"
  op: "Const"
  input: "^loss/dense_1_loss/weighted_loss/broadcast_weights/assert_broadcastable/static_scalar_check_success"
  device: "/replica:0/task:0/device:CPU:0"
  attr {
    key: "_output_shapes"
    value {
      list {
        shape {
        }
      }
    }
  }
  attr {
    key: "dtype"
    value {
      type: DT_FLOAT
    }
  }
  attr {
    key: "value"
    value {
      tensor {
        dtype: DT_FLOAT
        tensor_shape {
        }
        float_val: 1.0
      }
    }
  }
}
node {
  name: "loss/dense_1_loss/weighted_loss/broadcast_weights/ones_like"
  op: "Fill"
  input: "loss/dense_1_loss/weighted_loss/broadcast_weights/ones_like/Shape"
  input: "loss/dense_1_loss/weighted_loss/broadcast_weights/ones_like/Const"
  device: "/replica:0/task:0/device:CPU:0"
  attr {
    key: "T"
    value {
      type: DT_FLOAT
    }
  }
  attr {
    key: "_output_shapes"
    value {
      list {
        shape {
          dim {
            size: -1
          }
        }
      }
    }
  }
  attr {
    key: "index_type"
    value {
      type: DT_INT32
    }
  }
}
node {
  name: "loss/dense_1_loss/weighted_loss/broadcast_weights"
  op: "Mul"
  input: "loss/dense_1_loss/weighted_loss/Const"
  input: "loss/dense_1_loss/weighted_loss/broadcast_weights/ones_like"
  device: "/replica:0/task:0/device:CPU:0"
  attr {
    key: "T"
    value {
      type: DT_FLOAT
    }
  }
  attr {
    key: "_output_shapes"
    value {
      list {
        shape {
          dim {
            size: -1
          }
        }
      }
    }
  }
}
node {
  name: "loss/dense_1_loss/weighted_loss/Mul"
  op: "Mul"
  input: "loss/dense_1_loss/Mean"
  input: "loss/dense_1_loss/weighted_loss/broadcast_weights"
  device: "/replica:0/task:0/device:CPU:0"
  attr {
    key: "T"
    value {
      type: DT_FLOAT
    }
  }
  attr {
    key: "_output_shapes"
    value {
      list {
        shape {
          dim {
            size: -1
          }
        }
      }
    }
  }
}
node {
  name: "loss/dense_1_loss/Const_1"
  op: "Const"
  device: "/replica:0/task:0/device:CPU:0"
  attr {
    key: "_output_shapes"
    value {
      list {
        shape {
          dim {
            size: 1
          }
        }
      }
    }
  }
  attr {
    key: "dtype"
    value {
      type: DT_INT32
    }
  }
  attr {
    key: "value"
    value {
      tensor {
        dtype: DT_INT32
        tensor_shape {
          dim {
            size: 1
          }
        }
        int_val: 0
      }
    }
  }
}
node {
  name: "loss/dense_1_loss/Sum"
  op: "Sum"
  input: "loss/dense_1_loss/weighted_loss/Mul"
  input: "loss/dense_1_loss/Const_1"
  device: "/replica:0/task:0/device:CPU:0"
  attr {
    key: "T"
    value {
      type: DT_FLOAT
    }
  }
  attr {
    key: "Tidx"
    value {
      type: DT_INT32
    }
  }
  attr {
    key: "_output_shapes"
    value {
      list {
        shape {
        }
      }
    }
  }
  attr {
    key: "keep_dims"
    value {
      b: false
    }
  }
}
node {
  name: "loss/dense_1_loss/num_elements"
  op: "Size"
  input: "loss/dense_1_loss/weighted_loss/Mul"
  device: "/replica:0/task:0/device:CPU:0"
  attr {
    key: "T"
    value {
      type: DT_FLOAT
    }
  }
  attr {
    key: "_output_shapes"
    value {
      list {
        shape {
        }
      }
    }
  }
  attr {
    key: "out_type"
    value {
      type: DT_INT32
    }
  }
}
node {
  name: "loss/dense_1_loss/num_elements/Cast"
  op: "Cast"
  input: "loss/dense_1_loss/num_elements"
  device: "/replica:0/task:0/device:CPU:0"
  attr {
    key: "DstT"
    value {
      type: DT_FLOAT
    }
  }
  attr {
    key: "SrcT"
    value {
      type: DT_INT32
    }
  }
  attr {
    key: "Truncate"
    value {
      b: false
    }
  }
  attr {
    key: "_output_shapes"
    value {
      list {
        shape {
        }
      }
    }
  }
}
node {
  name: "loss/dense_1_loss/Const_2"
  op: "Const"
  device: "/replica:0/task:0/device:CPU:0"
  attr {
    key: "_output_shapes"
    value {
      list {
        shape {
          dim {
          }
        }
      }
    }
  }
  attr {
    key: "dtype"
    value {
      type: DT_INT32
    }
  }
  attr {
    key: "value"
    value {
      tensor {
        dtype: DT_INT32
        tensor_shape {
          dim {
          }
        }
      }
    }
  }
}
node {
  name: "loss/dense_1_loss/Sum_1"
  op: "Sum"
  input: "loss/dense_1_loss/Sum"
  input: "loss/dense_1_loss/Const_2"
  device: "/replica:0/task:0/device:CPU:0"
  attr {
    key: "T"
    value {
      type: DT_FLOAT
    }
  }
  attr {
    key: "Tidx"
    value {
      type: DT_INT32
    }
  }
  attr {
    key: "_output_shapes"
    value {
      list {
        shape {
        }
      }
    }
  }
  attr {
    key: "keep_dims"
    value {
      b: false
    }
  }
}
node {
  name: "loss/dense_1_loss/value"
  op: "DivNoNan"
  input: "loss/dense_1_loss/Sum_1"
  input: "loss/dense_1_loss/num_elements/Cast"
  device: "/replica:0/task:0/device:CPU:0"
  attr {
    key: "T"
    value {
      type: DT_FLOAT
    }
  }
  attr {
    key: "_output_shapes"
    value {
      list {
        shape {
        }
      }
    }
  }
}
node {
  name: "loss/mul/x"
  op: "Const"
  device: "/replica:0/task:0/device:CPU:0"
  attr {
    key: "_output_shapes"
    value {
      list {
        shape {
        }
      }
    }
  }
  attr {
    key: "dtype"
    value {
      type: DT_FLOAT
    }
  }
  attr {
    key: "value"
    value {
      tensor {
        dtype: DT_FLOAT
        tensor_shape {
        }
        float_val: 1.0
      }
    }
  }
}
node {
  name: "loss/mul"
  op: "Mul"
  input: "loss/mul/x"
  input: "loss/dense_1_loss/value"
  device: "/replica:0/task:0/device:CPU:0"
  attr {
    key: "T"
    value {
      type: DT_FLOAT
    }
  }
  attr {
    key: "_output_shapes"
    value {
      list {
        shape {
        }
      }
    }
  }
}
node {
  name: "training/gradients/Shape"
  op: "Const"
  device: "/replica:0/task:0/device:CPU:0"
  attr {
    key: "_output_shapes"
    value {
      list {
        shape {
          dim {
          }
        }
      }
    }
  }
  attr {
    key: "dtype"
    value {
      type: DT_INT32
    }
  }
  attr {
    key: "value"
    value {
      tensor {
        dtype: DT_INT32
        tensor_shape {
          dim {
          }
        }
      }
    }
  }
}
node {
  name: "training/gradients/grad_ys_0"
  op: "Const"
  device: "/replica:0/task:0/device:CPU:0"
  attr {
    key: "_output_shapes"
    value {
      list {
        shape {
        }
      }
    }
  }
  attr {
    key: "dtype"
    value {
      type: DT_FLOAT
    }
  }
  attr {
    key: "value"
    value {
      tensor {
        dtype: DT_FLOAT
        tensor_shape {
        }
        float_val: 1.0
      }
    }
  }
}
node {
  name: "training/gradients/Fill"
  op: "Fill"
  input: "training/gradients/Shape"
  input: "training/gradients/grad_ys_0"
  device: "/replica:0/task:0/device:CPU:0"
  attr {
    key: "T"
    value {
      type: DT_FLOAT
    }
  }
  attr {
    key: "_output_shapes"
    value {
      list {
        shape {
        }
      }
    }
  }
  attr {
    key: "index_type"
    value {
      type: DT_INT32
    }
  }
}
node {
  name: "training/gradients/loss/mul_grad/Mul"
  op: "Mul"
  input: "training/gradients/Fill"
  input: "loss/dense_1_loss/value"
  device: "/replica:0/task:0/device:CPU:0"
  attr {
    key: "T"
    value {
      type: DT_FLOAT
    }
  }
  attr {
    key: "_output_shapes"
    value {
      list {
        shape {
        }
      }
    }
  }
}
node {
  name: "training/gradients/loss/mul_grad/Mul_1"
  op: "Mul"
  input: "training/gradients/Fill"
  input: "loss/mul/x"
  device: "/replica:0/task:0/device:CPU:0"
  attr {
    key: "T"
    value {
      type: DT_FLOAT
    }
  }
  attr {
    key: "_output_shapes"
    value {
      list {
        shape {
        }
      }
    }
  }
}
node {
  name: "training/gradients/loss/mul_grad/tuple/group_deps"
  op: "NoOp"
  input: "^training/gradients/loss/mul_grad/Mul"
  input: "^training/gradients/loss/mul_grad/Mul_1"
  device: "/replica:0/task:0/device:CPU:0"
}
node {
  name: "training/gradients/loss/mul_grad/tuple/control_dependency"
  op: "Identity"
  input: "training/gradients/loss/mul_grad/Mul"
  input: "^training/gradients/loss/mul_grad/tuple/group_deps"
  device: "/replica:0/task:0/device:CPU:0"
  attr {
    key: "T"
    value {
      type: DT_FLOAT
    }
  }
  attr {
    key: "_class"
    value {
      list {
        s: "loc:@training/gradients/loss/mul_grad/Mul"
      }
    }
  }
  attr {
    key: "_output_shapes"
    value {
      list {
        shape {
        }
      }
    }
  }
}
node {
  name: "training/gradients/loss/mul_grad/tuple/control_dependency_1"
  op: "Identity"
  input: "training/gradients/loss/mul_grad/Mul_1"
  input: "^training/gradients/loss/mul_grad/tuple/group_deps"
  device: "/replica:0/task:0/device:CPU:0"
  attr {
    key: "T"
    value {
      type: DT_FLOAT
    }
  }
  attr {
    key: "_class"
    value {
      list {
        s: "loc:@training/gradients/loss/mul_grad/Mul_1"
      }
    }
  }
  attr {
    key: "_output_shapes"
    value {
      list {
        shape {
        }
      }
    }
  }
}
node {
  name: "training/gradients/loss/dense_1_loss/value_grad/Shape"
  op: "Const"
  device: "/replica:0/task:0/device:CPU:0"
  attr {
    key: "_output_shapes"
    value {
      list {
        shape {
          dim {
          }
        }
      }
    }
  }
  attr {
    key: "dtype"
    value {
      type: DT_INT32
    }
  }
  attr {
    key: "value"
    value {
      tensor {
        dtype: DT_INT32
        tensor_shape {
          dim {
          }
        }
      }
    }
  }
}
node {
  name: "training/gradients/loss/dense_1_loss/value_grad/Shape_1"
  op: "Const"
  device: "/replica:0/task:0/device:CPU:0"
  attr {
    key: "_output_shapes"
    value {
      list {
        shape {
          dim {
          }
        }
      }
    }
  }
  attr {
    key: "dtype"
    value {
      type: DT_INT32
    }
  }
  attr {
    key: "value"
    value {
      tensor {
        dtype: DT_INT32
        tensor_shape {
          dim {
          }
        }
      }
    }
  }
}
node {
  name: "training/gradients/loss/dense_1_loss/value_grad/BroadcastGradientArgs"
  op: "BroadcastGradientArgs"
  input: "training/gradients/loss/dense_1_loss/value_grad/Shape"
  input: "training/gradients/loss/dense_1_loss/value_grad/Shape_1"
  device: "/replica:0/task:0/device:CPU:0"
  attr {
    key: "T"
    value {
      type: DT_INT32
    }
  }
  attr {
    key: "_output_shapes"
    value {
      list {
        shape {
          dim {
            size: -1
          }
        }
        shape {
          dim {
            size: -1
          }
        }
      }
    }
  }
}
node {
  name: "training/gradients/loss/dense_1_loss/value_grad/div_no_nan"
  op: "DivNoNan"
  input: "training/gradients/loss/mul_grad/tuple/control_dependency_1"
  input: "loss/dense_1_loss/num_elements/Cast"
  device: "/replica:0/task:0/device:CPU:0"
  attr {
    key: "T"
    value {
      type: DT_FLOAT
    }
  }
  attr {
    key: "_output_shapes"
    value {
      list {
        shape {
        }
      }
    }
  }
}
node {
  name: "training/gradients/loss/dense_1_loss/value_grad/Sum"
  op: "Sum"
  input: "training/gradients/loss/dense_1_loss/value_grad/div_no_nan"
  input: "training/gradients/loss/dense_1_loss/value_grad/BroadcastGradientArgs"
  device: "/replica:0/task:0/device:CPU:0"
  attr {
    key: "T"
    value {
      type: DT_FLOAT
    }
  }
  attr {
    key: "Tidx"
    value {
      type: DT_INT32
    }
  }
  attr {
    key: "_output_shapes"
    value {
      list {
        shape {
        }
      }
    }
  }
  attr {
    key: "keep_dims"
    value {
      b: false
    }
  }
}
node {
  name: "training/gradients/loss/dense_1_loss/value_grad/Reshape"
  op: "Reshape"
  input: "training/gradients/loss/dense_1_loss/value_grad/Sum"
  input: "training/gradients/loss/dense_1_loss/value_grad/Shape"
  device: "/replica:0/task:0/device:CPU:0"
  attr {
    key: "T"
    value {
      type: DT_FLOAT
    }
  }
  attr {
    key: "Tshape"
    value {
      type: DT_INT32
    }
  }
  attr {
    key: "_output_shapes"
    value {
      list {
        shape {
        }
      }
    }
  }
}
node {
  name: "training/gradients/loss/dense_1_loss/value_grad/Neg"
  op: "Neg"
  input: "loss/dense_1_loss/Sum_1"
  device: "/replica:0/task:0/device:CPU:0"
  attr {
    key: "T"
    value {
      type: DT_FLOAT
    }
  }
  attr {
    key: "_output_shapes"
    value {
      list {
        shape {
        }
      }
    }
  }
}
node {
  name: "training/gradients/loss/dense_1_loss/value_grad/div_no_nan_1"
  op: "DivNoNan"
  input: "training/gradients/loss/dense_1_loss/value_grad/Neg"
  input: "loss/dense_1_loss/num_elements/Cast"
  device: "/replica:0/task:0/device:CPU:0"
  attr {
    key: "T"
    value {
      type: DT_FLOAT
    }
  }
  attr {
    key: "_output_shapes"
    value {
      list {
        shape {
        }
      }
    }
  }
}
node {
  name: "training/gradients/loss/dense_1_loss/value_grad/div_no_nan_2"
  op: "DivNoNan"
  input: "training/gradients/loss/dense_1_loss/value_grad/div_no_nan_1"
  input: "loss/dense_1_loss/num_elements/Cast"
  device: "/replica:0/task:0/device:CPU:0"
  attr {
    key: "T"
    value {
      type: DT_FLOAT
    }
  }
  attr {
    key: "_output_shapes"
    value {
      list {
        shape {
        }
      }
    }
  }
}
node {
  name: "training/gradients/loss/dense_1_loss/value_grad/mul"
  op: "Mul"
  input: "training/gradients/loss/mul_grad/tuple/control_dependency_1"
  input: "training/gradients/loss/dense_1_loss/value_grad/div_no_nan_2"
  device: "/replica:0/task:0/device:CPU:0"
  attr {
    key: "T"
    value {
      type: DT_FLOAT
    }
  }
  attr {
    key: "_output_shapes"
    value {
      list {
        shape {
        }
      }
    }
  }
}
node {
  name: "training/gradients/loss/dense_1_loss/value_grad/Sum_1"
  op: "Sum"
  input: "training/gradients/loss/dense_1_loss/value_grad/mul"
  input: "training/gradients/loss/dense_1_loss/value_grad/BroadcastGradientArgs:1"
  device: "/replica:0/task:0/device:CPU:0"
  attr {
    key: "T"
    value {
      type: DT_FLOAT
    }
  }
  attr {
    key: "Tidx"
    value {
      type: DT_INT32
    }
  }
  attr {
    key: "_output_shapes"
    value {
      list {
        shape {
        }
      }
    }
  }
  attr {
    key: "keep_dims"
    value {
      b: false
    }
  }
}
node {
  name: "training/gradients/loss/dense_1_loss/value_grad/Reshape_1"
  op: "Reshape"
  input: "training/gradients/loss/dense_1_loss/value_grad/Sum_1"
  input: "training/gradients/loss/dense_1_loss/value_grad/Shape_1"
  device: "/replica:0/task:0/device:CPU:0"
  attr {
    key: "T"
    value {
      type: DT_FLOAT
    }
  }
  attr {
    key: "Tshape"
    value {
      type: DT_INT32
    }
  }
  attr {
    key: "_output_shapes"
    value {
      list {
        shape {
        }
      }
    }
  }
}
node {
  name: "training/gradients/loss/dense_1_loss/value_grad/tuple/group_deps"
  op: "NoOp"
  input: "^training/gradients/loss/dense_1_loss/value_grad/Reshape"
  input: "^training/gradients/loss/dense_1_loss/value_grad/Reshape_1"
  device: "/replica:0/task:0/device:CPU:0"
}
node {
  name: "training/gradients/loss/dense_1_loss/value_grad/tuple/control_dependency"
  op: "Identity"
  input: "training/gradients/loss/dense_1_loss/value_grad/Reshape"
  input: "^training/gradients/loss/dense_1_loss/value_grad/tuple/group_deps"
  device: "/replica:0/task:0/device:CPU:0"
  attr {
    key: "T"
    value {
      type: DT_FLOAT
    }
  }
  attr {
    key: "_class"
    value {
      list {
        s: "loc:@training/gradients/loss/dense_1_loss/value_grad/Reshape"
      }
    }
  }
  attr {
    key: "_output_shapes"
    value {
      list {
        shape {
        }
      }
    }
  }
}
node {
  name: "training/gradients/loss/dense_1_loss/value_grad/tuple/control_dependency_1"
  op: "Identity"
  input: "training/gradients/loss/dense_1_loss/value_grad/Reshape_1"
  input: "^training/gradients/loss/dense_1_loss/value_grad/tuple/group_deps"
  device: "/replica:0/task:0/device:CPU:0"
  attr {
    key: "T"
    value {
      type: DT_FLOAT
    }
  }
  attr {
    key: "_class"
    value {
      list {
        s: "loc:@training/gradients/loss/dense_1_loss/value_grad/Reshape_1"
      }
    }
  }
  attr {
    key: "_output_shapes"
    value {
      list {
        shape {
        }
      }
    }
  }
}
node {
  name: "training/gradients/loss/dense_1_loss/Sum_1_grad/Reshape/shape"
  op: "Const"
  device: "/replica:0/task:0/device:CPU:0"
  attr {
    key: "_output_shapes"
    value {
      list {
        shape {
          dim {
          }
        }
      }
    }
  }
  attr {
    key: "dtype"
    value {
      type: DT_INT32
    }
  }
  attr {
    key: "value"
    value {
      tensor {
        dtype: DT_INT32
        tensor_shape {
          dim {
          }
        }
      }
    }
  }
}
node {
  name: "training/gradients/loss/dense_1_loss/Sum_1_grad/Reshape"
  op: "Reshape"
  input: "training/gradients/loss/dense_1_loss/value_grad/tuple/control_dependency"
  input: "training/gradients/loss/dense_1_loss/Sum_1_grad/Reshape/shape"
  device: "/replica:0/task:0/device:CPU:0"
  attr {
    key: "T"
    value {
      type: DT_FLOAT
    }
  }
  attr {
    key: "Tshape"
    value {
      type: DT_INT32
    }
  }
  attr {
    key: "_output_shapes"
    value {
      list {
        shape {
        }
      }
    }
  }
}
node {
  name: "training/gradients/loss/dense_1_loss/Sum_1_grad/Const"
  op: "Const"
  device: "/replica:0/task:0/device:CPU:0"
  attr {
    key: "_output_shapes"
    value {
      list {
        shape {
          dim {
          }
        }
      }
    }
  }
  attr {
    key: "dtype"
    value {
      type: DT_INT32
    }
  }
  attr {
    key: "value"
    value {
      tensor {
        dtype: DT_INT32
        tensor_shape {
          dim {
          }
        }
      }
    }
  }
}
node {
  name: "training/gradients/loss/dense_1_loss/Sum_1_grad/Tile"
  op: "Tile"
  input: "training/gradients/loss/dense_1_loss/Sum_1_grad/Reshape"
  input: "training/gradients/loss/dense_1_loss/Sum_1_grad/Const"
  device: "/replica:0/task:0/device:CPU:0"
  attr {
    key: "T"
    value {
      type: DT_FLOAT
    }
  }
  attr {
    key: "Tmultiples"
    value {
      type: DT_INT32
    }
  }
  attr {
    key: "_output_shapes"
    value {
      list {
        shape {
        }
      }
    }
  }
}
node {
  name: "training/gradients/loss/dense_1_loss/Sum_grad/Reshape/shape"
  op: "Const"
  device: "/replica:0/task:0/device:CPU:0"
  attr {
    key: "_output_shapes"
    value {
      list {
        shape {
          dim {
            size: 1
          }
        }
      }
    }
  }
  attr {
    key: "dtype"
    value {
      type: DT_INT32
    }
  }
  attr {
    key: "value"
    value {
      tensor {
        dtype: DT_INT32
        tensor_shape {
          dim {
            size: 1
          }
        }
        int_val: 1
      }
    }
  }
}
node {
  name: "training/gradients/loss/dense_1_loss/Sum_grad/Reshape"
  op: "Reshape"
  input: "training/gradients/loss/dense_1_loss/Sum_1_grad/Tile"
  input: "training/gradients/loss/dense_1_loss/Sum_grad/Reshape/shape"
  device: "/replica:0/task:0/device:CPU:0"
  attr {
    key: "T"
    value {
      type: DT_FLOAT
    }
  }
  attr {
    key: "Tshape"
    value {
      type: DT_INT32
    }
  }
  attr {
    key: "_output_shapes"
    value {
      list {
        shape {
          dim {
            size: 1
          }
        }
      }
    }
  }
}
node {
  name: "training/gradients/loss/dense_1_loss/Sum_grad/Shape"
  op: "Shape"
  input: "loss/dense_1_loss/weighted_loss/Mul"
  device: "/replica:0/task:0/device:CPU:0"
  attr {
    key: "T"
    value {
      type: DT_FLOAT
    }
  }
  attr {
    key: "_output_shapes"
    value {
      list {
        shape {
          dim {
            size: 1
          }
        }
      }
    }
  }
  attr {
    key: "out_type"
    value {
      type: DT_INT32
    }
  }
}
node {
  name: "training/gradients/loss/dense_1_loss/Sum_grad/Tile"
  op: "Tile"
  input: "training/gradients/loss/dense_1_loss/Sum_grad/Reshape"
  input: "training/gradients/loss/dense_1_loss/Sum_grad/Shape"
  device: "/replica:0/task:0/device:CPU:0"
  attr {
    key: "T"
    value {
      type: DT_FLOAT
    }
  }
  attr {
    key: "Tmultiples"
    value {
      type: DT_INT32
    }
  }
  attr {
    key: "_output_shapes"
    value {
      list {
        shape {
          dim {
            size: -1
          }
        }
      }
    }
  }
}
node {
  name: "training/gradients/loss/dense_1_loss/weighted_loss/Mul_grad/Shape"
  op: "Shape"
  input: "loss/dense_1_loss/Mean"
  device: "/replica:0/task:0/device:CPU:0"
  attr {
    key: "T"
    value {
      type: DT_FLOAT
    }
  }
  attr {
    key: "_output_shapes"
    value {
      list {
        shape {
          dim {
            size: 1
          }
        }
      }
    }
  }
  attr {
    key: "out_type"
    value {
      type: DT_INT32
    }
  }
}
node {
  name: "training/gradients/loss/dense_1_loss/weighted_loss/Mul_grad/Shape_1"
  op: "Shape"
  input: "loss/dense_1_loss/weighted_loss/broadcast_weights"
  device: "/replica:0/task:0/device:CPU:0"
  attr {
    key: "T"
    value {
      type: DT_FLOAT
    }
  }
  attr {
    key: "_output_shapes"
    value {
      list {
        shape {
          dim {
            size: 1
          }
        }
      }
    }
  }
  attr {
    key: "out_type"
    value {
      type: DT_INT32
    }
  }
}
node {
  name: "training/gradients/loss/dense_1_loss/weighted_loss/Mul_grad/BroadcastGradientArgs"
  op: "BroadcastGradientArgs"
  input: "training/gradients/loss/dense_1_loss/weighted_loss/Mul_grad/Shape"
  input: "training/gradients/loss/dense_1_loss/weighted_loss/Mul_grad/Shape_1"
  device: "/replica:0/task:0/device:CPU:0"
  attr {
    key: "T"
    value {
      type: DT_INT32
    }
  }
  attr {
    key: "_output_shapes"
    value {
      list {
        shape {
          dim {
            size: -1
          }
        }
        shape {
          dim {
            size: -1
          }
        }
      }
    }
  }
}
node {
  name: "training/gradients/loss/dense_1_loss/weighted_loss/Mul_grad/Mul"
  op: "Mul"
  input: "training/gradients/loss/dense_1_loss/Sum_grad/Tile"
  input: "loss/dense_1_loss/weighted_loss/broadcast_weights"
  device: "/replica:0/task:0/device:CPU:0"
  attr {
    key: "T"
    value {
      type: DT_FLOAT
    }
  }
  attr {
    key: "_output_shapes"
    value {
      list {
        shape {
          dim {
            size: -1
          }
        }
      }
    }
  }
}
node {
  name: "training/gradients/loss/dense_1_loss/weighted_loss/Mul_grad/Sum"
  op: "Sum"
  input: "training/gradients/loss/dense_1_loss/weighted_loss/Mul_grad/Mul"
  input: "training/gradients/loss/dense_1_loss/weighted_loss/Mul_grad/BroadcastGradientArgs"
  device: "/replica:0/task:0/device:CPU:0"
  attr {
    key: "T"
    value {
      type: DT_FLOAT
    }
  }
  attr {
    key: "Tidx"
    value {
      type: DT_INT32
    }
  }
  attr {
    key: "_output_shapes"
    value {
      list {
        shape {
          unknown_rank: true
        }
      }
    }
  }
  attr {
    key: "keep_dims"
    value {
      b: false
    }
  }
}
node {
  name: "training/gradients/loss/dense_1_loss/weighted_loss/Mul_grad/Reshape"
  op: "Reshape"
  input: "training/gradients/loss/dense_1_loss/weighted_loss/Mul_grad/Sum"
  input: "training/gradients/loss/dense_1_loss/weighted_loss/Mul_grad/Shape"
  device: "/replica:0/task:0/device:CPU:0"
  attr {
    key: "T"
    value {
      type: DT_FLOAT
    }
  }
  attr {
    key: "Tshape"
    value {
      type: DT_INT32
    }
  }
  attr {
    key: "_output_shapes"
    value {
      list {
        shape {
          dim {
            size: -1
          }
        }
      }
    }
  }
}
node {
  name: "training/gradients/loss/dense_1_loss/weighted_loss/Mul_grad/Mul_1"
  op: "Mul"
  input: "loss/dense_1_loss/Mean"
  input: "training/gradients/loss/dense_1_loss/Sum_grad/Tile"
  device: "/replica:0/task:0/device:CPU:0"
  attr {
    key: "T"
    value {
      type: DT_FLOAT
    }
  }
  attr {
    key: "_output_shapes"
    value {
      list {
        shape {
          dim {
            size: -1
          }
        }
      }
    }
  }
}
node {
  name: "training/gradients/loss/dense_1_loss/weighted_loss/Mul_grad/Sum_1"
  op: "Sum"
  input: "training/gradients/loss/dense_1_loss/weighted_loss/Mul_grad/Mul_1"
  input: "training/gradients/loss/dense_1_loss/weighted_loss/Mul_grad/BroadcastGradientArgs:1"
  device: "/replica:0/task:0/device:CPU:0"
  attr {
    key: "T"
    value {
      type: DT_FLOAT
    }
  }
  attr {
    key: "Tidx"
    value {
      type: DT_INT32
    }
  }
  attr {
    key: "_output_shapes"
    value {
      list {
        shape {
          unknown_rank: true
        }
      }
    }
  }
  attr {
    key: "keep_dims"
    value {
      b: false
    }
  }
}
node {
  name: "training/gradients/loss/dense_1_loss/weighted_loss/Mul_grad/Reshape_1"
  op: "Reshape"
  input: "training/gradients/loss/dense_1_loss/weighted_loss/Mul_grad/Sum_1"
  input: "training/gradients/loss/dense_1_loss/weighted_loss/Mul_grad/Shape_1"
  device: "/replica:0/task:0/device:CPU:0"
  attr {
    key: "T"
    value {
      type: DT_FLOAT
    }
  }
  attr {
    key: "Tshape"
    value {
      type: DT_INT32
    }
  }
  attr {
    key: "_output_shapes"
    value {
      list {
        shape {
          dim {
            size: -1
          }
        }
      }
    }
  }
}
node {
  name: "training/gradients/loss/dense_1_loss/weighted_loss/Mul_grad/tuple/group_deps"
  op: "NoOp"
  input: "^training/gradients/loss/dense_1_loss/weighted_loss/Mul_grad/Reshape"
  input: "^training/gradients/loss/dense_1_loss/weighted_loss/Mul_grad/Reshape_1"
  device: "/replica:0/task:0/device:CPU:0"
}
node {
  name: "training/gradients/loss/dense_1_loss/weighted_loss/Mul_grad/tuple/control_dependency"
  op: "Identity"
  input: "training/gradients/loss/dense_1_loss/weighted_loss/Mul_grad/Reshape"
  input: "^training/gradients/loss/dense_1_loss/weighted_loss/Mul_grad/tuple/group_deps"
  device: "/replica:0/task:0/device:CPU:0"
  attr {
    key: "T"
    value {
      type: DT_FLOAT
    }
  }
  attr {
    key: "_class"
    value {
      list {
        s: "loc:@training/gradients/loss/dense_1_loss/weighted_loss/Mul_grad/Reshape"
      }
    }
  }
  attr {
    key: "_output_shapes"
    value {
      list {
        shape {
          dim {
            size: -1
          }
        }
      }
    }
  }
}
node {
  name: "training/gradients/loss/dense_1_loss/weighted_loss/Mul_grad/tuple/control_dependency_1"
  op: "Identity"
  input: "training/gradients/loss/dense_1_loss/weighted_loss/Mul_grad/Reshape_1"
  input: "^training/gradients/loss/dense_1_loss/weighted_loss/Mul_grad/tuple/group_deps"
  device: "/replica:0/task:0/device:CPU:0"
  attr {
    key: "T"
    value {
      type: DT_FLOAT
    }
  }
  attr {
    key: "_class"
    value {
      list {
        s: "loc:@training/gradients/loss/dense_1_loss/weighted_loss/Mul_grad/Reshape_1"
      }
    }
  }
  attr {
    key: "_output_shapes"
    value {
      list {
        shape {
          dim {
            size: -1
          }
        }
      }
    }
  }
}
node {
  name: "training/gradients/loss/dense_1_loss/Mean_grad/Shape"
  op: "Shape"
  input: "loss/dense_1_loss/logistic_loss"
  device: "/replica:0/task:0/device:CPU:0"
  attr {
    key: "T"
    value {
      type: DT_FLOAT
    }
  }
  attr {
    key: "_output_shapes"
    value {
      list {
        shape {
          dim {
            size: 2
          }
        }
      }
    }
  }
  attr {
    key: "out_type"
    value {
      type: DT_INT32
    }
  }
}
node {
  name: "training/gradients/loss/dense_1_loss/Mean_grad/Size"
  op: "Const"
  device: "/replica:0/task:0/device:CPU:0"
  attr {
    key: "_class"
    value {
      list {
        s: "loc:@training/gradients/loss/dense_1_loss/Mean_grad/Shape"
      }
    }
  }
  attr {
    key: "_output_shapes"
    value {
      list {
        shape {
        }
      }
    }
  }
  attr {
    key: "dtype"
    value {
      type: DT_INT32
    }
  }
  attr {
    key: "value"
    value {
      tensor {
        dtype: DT_INT32
        tensor_shape {
        }
        int_val: 2
      }
    }
  }
}
node {
  name: "training/gradients/loss/dense_1_loss/Mean_grad/add"
  op: "Add"
  input: "loss/dense_1_loss/Mean/reduction_indices"
  input: "training/gradients/loss/dense_1_loss/Mean_grad/Size"
  device: "/replica:0/task:0/device:CPU:0"
  attr {
    key: "T"
    value {
      type: DT_INT32
    }
  }
  attr {
    key: "_class"
    value {
      list {
        s: "loc:@training/gradients/loss/dense_1_loss/Mean_grad/Shape"
      }
    }
  }
  attr {
    key: "_output_shapes"
    value {
      list {
        shape {
        }
      }
    }
  }
}
node {
  name: "training/gradients/loss/dense_1_loss/Mean_grad/mod"
  op: "FloorMod"
  input: "training/gradients/loss/dense_1_loss/Mean_grad/add"
  input: "training/gradients/loss/dense_1_loss/Mean_grad/Size"
  device: "/replica:0/task:0/device:CPU:0"
  attr {
    key: "T"
    value {
      type: DT_INT32
    }
  }
  attr {
    key: "_class"
    value {
      list {
        s: "loc:@training/gradients/loss/dense_1_loss/Mean_grad/Shape"
      }
    }
  }
  attr {
    key: "_output_shapes"
    value {
      list {
        shape {
        }
      }
    }
  }
}
node {
  name: "training/gradients/loss/dense_1_loss/Mean_grad/Shape_1"
  op: "Const"
  device: "/replica:0/task:0/device:CPU:0"
  attr {
    key: "_class"
    value {
      list {
        s: "loc:@training/gradients/loss/dense_1_loss/Mean_grad/Shape"
      }
    }
  }
  attr {
    key: "_output_shapes"
    value {
      list {
        shape {
          dim {
          }
        }
      }
    }
  }
  attr {
    key: "dtype"
    value {
      type: DT_INT32
    }
  }
  attr {
    key: "value"
    value {
      tensor {
        dtype: DT_INT32
        tensor_shape {
          dim {
          }
        }
      }
    }
  }
}
node {
  name: "training/gradients/loss/dense_1_loss/Mean_grad/range/start"
  op: "Const"
  device: "/replica:0/task:0/device:CPU:0"
  attr {
    key: "_class"
    value {
      list {
        s: "loc:@training/gradients/loss/dense_1_loss/Mean_grad/Shape"
      }
    }
  }
  attr {
    key: "_output_shapes"
    value {
      list {
        shape {
        }
      }
    }
  }
  attr {
    key: "dtype"
    value {
      type: DT_INT32
    }
  }
  attr {
    key: "value"
    value {
      tensor {
        dtype: DT_INT32
        tensor_shape {
        }
        int_val: 0
      }
    }
  }
}
node {
  name: "training/gradients/loss/dense_1_loss/Mean_grad/range/delta"
  op: "Const"
  device: "/replica:0/task:0/device:CPU:0"
  attr {
    key: "_class"
    value {
      list {
        s: "loc:@training/gradients/loss/dense_1_loss/Mean_grad/Shape"
      }
    }
  }
  attr {
    key: "_output_shapes"
    value {
      list {
        shape {
        }
      }
    }
  }
  attr {
    key: "dtype"
    value {
      type: DT_INT32
    }
  }
  attr {
    key: "value"
    value {
      tensor {
        dtype: DT_INT32
        tensor_shape {
        }
        int_val: 1
      }
    }
  }
}
node {
  name: "training/gradients/loss/dense_1_loss/Mean_grad/range"
  op: "Range"
  input: "training/gradients/loss/dense_1_loss/Mean_grad/range/start"
  input: "training/gradients/loss/dense_1_loss/Mean_grad/Size"
  input: "training/gradients/loss/dense_1_loss/Mean_grad/range/delta"
  device: "/replica:0/task:0/device:CPU:0"
  attr {
    key: "Tidx"
    value {
      type: DT_INT32
    }
  }
  attr {
    key: "_class"
    value {
      list {
        s: "loc:@training/gradients/loss/dense_1_loss/Mean_grad/Shape"
      }
    }
  }
  attr {
    key: "_output_shapes"
    value {
      list {
        shape {
          dim {
            size: 2
          }
        }
      }
    }
  }
}
node {
  name: "training/gradients/loss/dense_1_loss/Mean_grad/Fill/value"
  op: "Const"
  device: "/replica:0/task:0/device:CPU:0"
  attr {
    key: "_class"
    value {
      list {
        s: "loc:@training/gradients/loss/dense_1_loss/Mean_grad/Shape"
      }
    }
  }
  attr {
    key: "_output_shapes"
    value {
      list {
        shape {
        }
      }
    }
  }
  attr {
    key: "dtype"
    value {
      type: DT_INT32
    }
  }
  attr {
    key: "value"
    value {
      tensor {
        dtype: DT_INT32
        tensor_shape {
        }
        int_val: 1
      }
    }
  }
}
node {
  name: "training/gradients/loss/dense_1_loss/Mean_grad/Fill"
  op: "Fill"
  input: "training/gradients/loss/dense_1_loss/Mean_grad/Shape_1"
  input: "training/gradients/loss/dense_1_loss/Mean_grad/Fill/value"
  device: "/replica:0/task:0/device:CPU:0"
  attr {
    key: "T"
    value {
      type: DT_INT32
    }
  }
  attr {
    key: "_class"
    value {
      list {
        s: "loc:@training/gradients/loss/dense_1_loss/Mean_grad/Shape"
      }
    }
  }
  attr {
    key: "_output_shapes"
    value {
      list {
        shape {
        }
      }
    }
  }
  attr {
    key: "index_type"
    value {
      type: DT_INT32
    }
  }
}
node {
  name: "training/gradients/loss/dense_1_loss/Mean_grad/DynamicStitch"
  op: "DynamicStitch"
  input: "training/gradients/loss/dense_1_loss/Mean_grad/range"
  input: "training/gradients/loss/dense_1_loss/Mean_grad/mod"
  input: "training/gradients/loss/dense_1_loss/Mean_grad/Shape"
  input: "training/gradients/loss/dense_1_loss/Mean_grad/Fill"
  device: "/replica:0/task:0/device:CPU:0"
  attr {
    key: "N"
    value {
      i: 2
    }
  }
  attr {
    key: "T"
    value {
      type: DT_INT32
    }
  }
  attr {
    key: "_class"
    value {
      list {
        s: "loc:@training/gradients/loss/dense_1_loss/Mean_grad/Shape"
      }
    }
  }
  attr {
    key: "_output_shapes"
    value {
      list {
        shape {
          dim {
            size: 2
          }
        }
      }
    }
  }
}
node {
  name: "training/gradients/loss/dense_1_loss/Mean_grad/Maximum/y"
  op: "Const"
  device: "/replica:0/task:0/device:CPU:0"
  attr {
    key: "_class"
    value {
      list {
        s: "loc:@training/gradients/loss/dense_1_loss/Mean_grad/Shape"
      }
    }
  }
  attr {
    key: "_output_shapes"
    value {
      list {
        shape {
        }
      }
    }
  }
  attr {
    key: "dtype"
    value {
      type: DT_INT32
    }
  }
  attr {
    key: "value"
    value {
      tensor {
        dtype: DT_INT32
        tensor_shape {
        }
        int_val: 1
      }
    }
  }
}
node {
  name: "training/gradients/loss/dense_1_loss/Mean_grad/Maximum"
  op: "Maximum"
  input: "training/gradients/loss/dense_1_loss/Mean_grad/DynamicStitch"
  input: "training/gradients/loss/dense_1_loss/Mean_grad/Maximum/y"
  device: "/replica:0/task:0/device:CPU:0"
  attr {
    key: "T"
    value {
      type: DT_INT32
    }
  }
  attr {
    key: "_class"
    value {
      list {
        s: "loc:@training/gradients/loss/dense_1_loss/Mean_grad/Shape"
      }
    }
  }
  attr {
    key: "_output_shapes"
    value {
      list {
        shape {
          dim {
            size: 2
          }
        }
      }
    }
  }
}
node {
  name: "training/gradients/loss/dense_1_loss/Mean_grad/floordiv"
  op: "FloorDiv"
  input: "training/gradients/loss/dense_1_loss/Mean_grad/Shape"
  input: "training/gradients/loss/dense_1_loss/Mean_grad/Maximum"
  device: "/replica:0/task:0/device:CPU:0"
  attr {
    key: "T"
    value {
      type: DT_INT32
    }
  }
  attr {
    key: "_class"
    value {
      list {
        s: "loc:@training/gradients/loss/dense_1_loss/Mean_grad/Shape"
      }
    }
  }
  attr {
    key: "_output_shapes"
    value {
      list {
        shape {
          dim {
            size: 2
          }
        }
      }
    }
  }
}
node {
  name: "training/gradients/loss/dense_1_loss/Mean_grad/Reshape"
  op: "Reshape"
  input: "training/gradients/loss/dense_1_loss/weighted_loss/Mul_grad/tuple/control_dependency"
  input: "training/gradients/loss/dense_1_loss/Mean_grad/DynamicStitch"
  device: "/replica:0/task:0/device:CPU:0"
  attr {
    key: "T"
    value {
      type: DT_FLOAT
    }
  }
  attr {
    key: "Tshape"
    value {
      type: DT_INT32
    }
  }
  attr {
    key: "_output_shapes"
    value {
      list {
        shape {
          dim {
            size: -1
          }
          dim {
            size: -1
          }
        }
      }
    }
  }
}
node {
  name: "training/gradients/loss/dense_1_loss/Mean_grad/Tile"
  op: "Tile"
  input: "training/gradients/loss/dense_1_loss/Mean_grad/Reshape"
  input: "training/gradients/loss/dense_1_loss/Mean_grad/floordiv"
  device: "/replica:0/task:0/device:CPU:0"
  attr {
    key: "T"
    value {
      type: DT_FLOAT
    }
  }
  attr {
    key: "Tmultiples"
    value {
      type: DT_INT32
    }
  }
  attr {
    key: "_output_shapes"
    value {
      list {
        shape {
          dim {
            size: -1
          }
          dim {
            size: -1
          }
        }
      }
    }
  }
}
node {
  name: "training/gradients/loss/dense_1_loss/Mean_grad/Shape_2"
  op: "Shape"
  input: "loss/dense_1_loss/logistic_loss"
  device: "/replica:0/task:0/device:CPU:0"
  attr {
    key: "T"
    value {
      type: DT_FLOAT
    }
  }
  attr {
    key: "_output_shapes"
    value {
      list {
        shape {
          dim {
            size: 2
          }
        }
      }
    }
  }
  attr {
    key: "out_type"
    value {
      type: DT_INT32
    }
  }
}
node {
  name: "training/gradients/loss/dense_1_loss/Mean_grad/Shape_3"
  op: "Shape"
  input: "loss/dense_1_loss/Mean"
  device: "/replica:0/task:0/device:CPU:0"
  attr {
    key: "T"
    value {
      type: DT_FLOAT
    }
  }
  attr {
    key: "_output_shapes"
    value {
      list {
        shape {
          dim {
            size: 1
          }
        }
      }
    }
  }
  attr {
    key: "out_type"
    value {
      type: DT_INT32
    }
  }
}
node {
  name: "training/gradients/loss/dense_1_loss/Mean_grad/Const"
  op: "Const"
  device: "/replica:0/task:0/device:CPU:0"
  attr {
    key: "_output_shapes"
    value {
      list {
        shape {
          dim {
            size: 1
          }
        }
      }
    }
  }
  attr {
    key: "dtype"
    value {
      type: DT_INT32
    }
  }
  attr {
    key: "value"
    value {
      tensor {
        dtype: DT_INT32
        tensor_shape {
          dim {
            size: 1
          }
        }
        int_val: 0
      }
    }
  }
}
node {
  name: "training/gradients/loss/dense_1_loss/Mean_grad/Prod"
  op: "Prod"
  input: "training/gradients/loss/dense_1_loss/Mean_grad/Shape_2"
  input: "training/gradients/loss/dense_1_loss/Mean_grad/Const"
  device: "/replica:0/task:0/device:CPU:0"
  attr {
    key: "T"
    value {
      type: DT_INT32
    }
  }
  attr {
    key: "Tidx"
    value {
      type: DT_INT32
    }
  }
  attr {
    key: "_output_shapes"
    value {
      list {
        shape {
        }
      }
    }
  }
  attr {
    key: "keep_dims"
    value {
      b: false
    }
  }
}
node {
  name: "training/gradients/loss/dense_1_loss/Mean_grad/Const_1"
  op: "Const"
  device: "/replica:0/task:0/device:CPU:0"
  attr {
    key: "_output_shapes"
    value {
      list {
        shape {
          dim {
            size: 1
          }
        }
      }
    }
  }
  attr {
    key: "dtype"
    value {
      type: DT_INT32
    }
  }
  attr {
    key: "value"
    value {
      tensor {
        dtype: DT_INT32
        tensor_shape {
          dim {
            size: 1
          }
        }
        int_val: 0
      }
    }
  }
}
node {
  name: "training/gradients/loss/dense_1_loss/Mean_grad/Prod_1"
  op: "Prod"
  input: "training/gradients/loss/dense_1_loss/Mean_grad/Shape_3"
  input: "training/gradients/loss/dense_1_loss/Mean_grad/Const_1"
  device: "/replica:0/task:0/device:CPU:0"
  attr {
    key: "T"
    value {
      type: DT_INT32
    }
  }
  attr {
    key: "Tidx"
    value {
      type: DT_INT32
    }
  }
  attr {
    key: "_output_shapes"
    value {
      list {
        shape {
        }
      }
    }
  }
  attr {
    key: "keep_dims"
    value {
      b: false
    }
  }
}
node {
  name: "training/gradients/loss/dense_1_loss/Mean_grad/Maximum_1/y"
  op: "Const"
  device: "/replica:0/task:0/device:CPU:0"
  attr {
    key: "_output_shapes"
    value {
      list {
        shape {
        }
      }
    }
  }
  attr {
    key: "dtype"
    value {
      type: DT_INT32
    }
  }
  attr {
    key: "value"
    value {
      tensor {
        dtype: DT_INT32
        tensor_shape {
        }
        int_val: 1
      }
    }
  }
}
node {
  name: "training/gradients/loss/dense_1_loss/Mean_grad/Maximum_1"
  op: "Maximum"
  input: "training/gradients/loss/dense_1_loss/Mean_grad/Prod_1"
  input: "training/gradients/loss/dense_1_loss/Mean_grad/Maximum_1/y"
  device: "/replica:0/task:0/device:CPU:0"
  attr {
    key: "T"
    value {
      type: DT_INT32
    }
  }
  attr {
    key: "_output_shapes"
    value {
      list {
        shape {
        }
      }
    }
  }
}
node {
  name: "training/gradients/loss/dense_1_loss/Mean_grad/floordiv_1"
  op: "FloorDiv"
  input: "training/gradients/loss/dense_1_loss/Mean_grad/Prod"
  input: "training/gradients/loss/dense_1_loss/Mean_grad/Maximum_1"
  device: "/replica:0/task:0/device:CPU:0"
  attr {
    key: "T"
    value {
      type: DT_INT32
    }
  }
  attr {
    key: "_output_shapes"
    value {
      list {
        shape {
        }
      }
    }
  }
}
node {
  name: "training/gradients/loss/dense_1_loss/Mean_grad/Cast"
  op: "Cast"
  input: "training/gradients/loss/dense_1_loss/Mean_grad/floordiv_1"
  device: "/replica:0/task:0/device:CPU:0"
  attr {
    key: "DstT"
    value {
      type: DT_FLOAT
    }
  }
  attr {
    key: "SrcT"
    value {
      type: DT_INT32
    }
  }
  attr {
    key: "Truncate"
    value {
      b: false
    }
  }
  attr {
    key: "_output_shapes"
    value {
      list {
        shape {
        }
      }
    }
  }
}
node {
  name: "training/gradients/loss/dense_1_loss/Mean_grad/truediv"
  op: "RealDiv"
  input: "training/gradients/loss/dense_1_loss/Mean_grad/Tile"
  input: "training/gradients/loss/dense_1_loss/Mean_grad/Cast"
  device: "/replica:0/task:0/device:CPU:0"
  attr {
    key: "T"
    value {
      type: DT_FLOAT
    }
  }
  attr {
    key: "_output_shapes"
    value {
      list {
        shape {
          dim {
            size: -1
          }
          dim {
            size: 1
          }
        }
      }
    }
  }
}
node {
  name: "training/gradients/loss/dense_1_loss/logistic_loss_grad/Shape"
  op: "Shape"
  input: "loss/dense_1_loss/logistic_loss/sub"
  device: "/replica:0/task:0/device:CPU:0"
  attr {
    key: "T"
    value {
      type: DT_FLOAT
    }
  }
  attr {
    key: "_output_shapes"
    value {
      list {
        shape {
          dim {
            size: 2
          }
        }
      }
    }
  }
  attr {
    key: "out_type"
    value {
      type: DT_INT32
    }
  }
}
node {
  name: "training/gradients/loss/dense_1_loss/logistic_loss_grad/Shape_1"
  op: "Shape"
  input: "loss/dense_1_loss/logistic_loss/Log1p"
  device: "/replica:0/task:0/device:CPU:0"
  attr {
    key: "T"
    value {
      type: DT_FLOAT
    }
  }
  attr {
    key: "_output_shapes"
    value {
      list {
        shape {
          dim {
            size: 2
          }
        }
      }
    }
  }
  attr {
    key: "out_type"
    value {
      type: DT_INT32
    }
  }
}
node {
  name: "training/gradients/loss/dense_1_loss/logistic_loss_grad/BroadcastGradientArgs"
  op: "BroadcastGradientArgs"
  input: "training/gradients/loss/dense_1_loss/logistic_loss_grad/Shape"
  input: "training/gradients/loss/dense_1_loss/logistic_loss_grad/Shape_1"
  device: "/replica:0/task:0/device:CPU:0"
  attr {
    key: "T"
    value {
      type: DT_INT32
    }
  }
  attr {
    key: "_output_shapes"
    value {
      list {
        shape {
          dim {
            size: -1
          }
        }
        shape {
          dim {
            size: -1
          }
        }
      }
    }
  }
}
node {
  name: "training/gradients/loss/dense_1_loss/logistic_loss_grad/Sum"
  op: "Sum"
  input: "training/gradients/loss/dense_1_loss/Mean_grad/truediv"
  input: "training/gradients/loss/dense_1_loss/logistic_loss_grad/BroadcastGradientArgs"
  device: "/replica:0/task:0/device:CPU:0"
  attr {
    key: "T"
    value {
      type: DT_FLOAT
    }
  }
  attr {
    key: "Tidx"
    value {
      type: DT_INT32
    }
  }
  attr {
    key: "_output_shapes"
    value {
      list {
        shape {
          unknown_rank: true
        }
      }
    }
  }
  attr {
    key: "keep_dims"
    value {
      b: false
    }
  }
}
node {
  name: "training/gradients/loss/dense_1_loss/logistic_loss_grad/Reshape"
  op: "Reshape"
  input: "training/gradients/loss/dense_1_loss/logistic_loss_grad/Sum"
  input: "training/gradients/loss/dense_1_loss/logistic_loss_grad/Shape"
  device: "/replica:0/task:0/device:CPU:0"
  attr {
    key: "T"
    value {
      type: DT_FLOAT
    }
  }
  attr {
    key: "Tshape"
    value {
      type: DT_INT32
    }
  }
  attr {
    key: "_output_shapes"
    value {
      list {
        shape {
          dim {
            size: -1
          }
          dim {
            size: 1
          }
        }
      }
    }
  }
}
node {
  name: "training/gradients/loss/dense_1_loss/logistic_loss_grad/Sum_1"
  op: "Sum"
  input: "training/gradients/loss/dense_1_loss/Mean_grad/truediv"
  input: "training/gradients/loss/dense_1_loss/logistic_loss_grad/BroadcastGradientArgs:1"
  device: "/replica:0/task:0/device:CPU:0"
  attr {
    key: "T"
    value {
      type: DT_FLOAT
    }
  }
  attr {
    key: "Tidx"
    value {
      type: DT_INT32
    }
  }
  attr {
    key: "_output_shapes"
    value {
      list {
        shape {
          unknown_rank: true
        }
      }
    }
  }
  attr {
    key: "keep_dims"
    value {
      b: false
    }
  }
}
node {
  name: "training/gradients/loss/dense_1_loss/logistic_loss_grad/Reshape_1"
  op: "Reshape"
  input: "training/gradients/loss/dense_1_loss/logistic_loss_grad/Sum_1"
  input: "training/gradients/loss/dense_1_loss/logistic_loss_grad/Shape_1"
  device: "/replica:0/task:0/device:CPU:0"
  attr {
    key: "T"
    value {
      type: DT_FLOAT
    }
  }
  attr {
    key: "Tshape"
    value {
      type: DT_INT32
    }
  }
  attr {
    key: "_output_shapes"
    value {
      list {
        shape {
          dim {
            size: -1
          }
          dim {
            size: 1
          }
        }
      }
    }
  }
}
node {
  name: "training/gradients/loss/dense_1_loss/logistic_loss_grad/tuple/group_deps"
  op: "NoOp"
  input: "^training/gradients/loss/dense_1_loss/logistic_loss_grad/Reshape"
  input: "^training/gradients/loss/dense_1_loss/logistic_loss_grad/Reshape_1"
  device: "/replica:0/task:0/device:CPU:0"
}
node {
  name: "training/gradients/loss/dense_1_loss/logistic_loss_grad/tuple/control_dependency"
  op: "Identity"
  input: "training/gradients/loss/dense_1_loss/logistic_loss_grad/Reshape"
  input: "^training/gradients/loss/dense_1_loss/logistic_loss_grad/tuple/group_deps"
  device: "/replica:0/task:0/device:CPU:0"
  attr {
    key: "T"
    value {
      type: DT_FLOAT
    }
  }
  attr {
    key: "_class"
    value {
      list {
        s: "loc:@training/gradients/loss/dense_1_loss/logistic_loss_grad/Reshape"
      }
    }
  }
  attr {
    key: "_output_shapes"
    value {
      list {
        shape {
          dim {
            size: -1
          }
          dim {
            size: 1
          }
        }
      }
    }
  }
}
node {
  name: "training/gradients/loss/dense_1_loss/logistic_loss_grad/tuple/control_dependency_1"
  op: "Identity"
  input: "training/gradients/loss/dense_1_loss/logistic_loss_grad/Reshape_1"
  input: "^training/gradients/loss/dense_1_loss/logistic_loss_grad/tuple/group_deps"
  device: "/replica:0/task:0/device:CPU:0"
  attr {
    key: "T"
    value {
      type: DT_FLOAT
    }
  }
  attr {
    key: "_class"
    value {
      list {
        s: "loc:@training/gradients/loss/dense_1_loss/logistic_loss_grad/Reshape_1"
      }
    }
  }
  attr {
    key: "_output_shapes"
    value {
      list {
        shape {
          dim {
            size: -1
          }
          dim {
            size: 1
          }
        }
      }
    }
  }
}
node {
  name: "training/gradients/loss/dense_1_loss/logistic_loss/sub_grad/Shape"
  op: "Shape"
  input: "loss/dense_1_loss/logistic_loss/Select"
  device: "/replica:0/task:0/device:CPU:0"
  attr {
    key: "T"
    value {
      type: DT_FLOAT
    }
  }
  attr {
    key: "_output_shapes"
    value {
      list {
        shape {
          dim {
            size: 2
          }
        }
      }
    }
  }
  attr {
    key: "out_type"
    value {
      type: DT_INT32
    }
  }
}
node {
  name: "training/gradients/loss/dense_1_loss/logistic_loss/sub_grad/Shape_1"
  op: "Shape"
  input: "loss/dense_1_loss/logistic_loss/mul"
  device: "/replica:0/task:0/device:CPU:0"
  attr {
    key: "T"
    value {
      type: DT_FLOAT
    }
  }
  attr {
    key: "_output_shapes"
    value {
      list {
        shape {
          dim {
            size: 2
          }
        }
      }
    }
  }
  attr {
    key: "out_type"
    value {
      type: DT_INT32
    }
  }
}
node {
  name: "training/gradients/loss/dense_1_loss/logistic_loss/sub_grad/BroadcastGradientArgs"
  op: "BroadcastGradientArgs"
  input: "training/gradients/loss/dense_1_loss/logistic_loss/sub_grad/Shape"
  input: "training/gradients/loss/dense_1_loss/logistic_loss/sub_grad/Shape_1"
  device: "/replica:0/task:0/device:CPU:0"
  attr {
    key: "T"
    value {
      type: DT_INT32
    }
  }
  attr {
    key: "_output_shapes"
    value {
      list {
        shape {
          dim {
            size: -1
          }
        }
        shape {
          dim {
            size: -1
          }
        }
      }
    }
  }
}
node {
  name: "training/gradients/loss/dense_1_loss/logistic_loss/sub_grad/Sum"
  op: "Sum"
  input: "training/gradients/loss/dense_1_loss/logistic_loss_grad/tuple/control_dependency"
  input: "training/gradients/loss/dense_1_loss/logistic_loss/sub_grad/BroadcastGradientArgs"
  device: "/replica:0/task:0/device:CPU:0"
  attr {
    key: "T"
    value {
      type: DT_FLOAT
    }
  }
  attr {
    key: "Tidx"
    value {
      type: DT_INT32
    }
  }
  attr {
    key: "_output_shapes"
    value {
      list {
        shape {
          unknown_rank: true
        }
      }
    }
  }
  attr {
    key: "keep_dims"
    value {
      b: false
    }
  }
}
node {
  name: "training/gradients/loss/dense_1_loss/logistic_loss/sub_grad/Reshape"
  op: "Reshape"
  input: "training/gradients/loss/dense_1_loss/logistic_loss/sub_grad/Sum"
  input: "training/gradients/loss/dense_1_loss/logistic_loss/sub_grad/Shape"
  device: "/replica:0/task:0/device:CPU:0"
  attr {
    key: "T"
    value {
      type: DT_FLOAT
    }
  }
  attr {
    key: "Tshape"
    value {
      type: DT_INT32
    }
  }
  attr {
    key: "_output_shapes"
    value {
      list {
        shape {
          dim {
            size: -1
          }
          dim {
            size: 1
          }
        }
      }
    }
  }
}
node {
  name: "training/gradients/loss/dense_1_loss/logistic_loss/sub_grad/Sum_1"
  op: "Sum"
  input: "training/gradients/loss/dense_1_loss/logistic_loss_grad/tuple/control_dependency"
  input: "training/gradients/loss/dense_1_loss/logistic_loss/sub_grad/BroadcastGradientArgs:1"
  device: "/replica:0/task:0/device:CPU:0"
  attr {
    key: "T"
    value {
      type: DT_FLOAT
    }
  }
  attr {
    key: "Tidx"
    value {
      type: DT_INT32
    }
  }
  attr {
    key: "_output_shapes"
    value {
      list {
        shape {
          unknown_rank: true
        }
      }
    }
  }
  attr {
    key: "keep_dims"
    value {
      b: false
    }
  }
}
node {
  name: "training/gradients/loss/dense_1_loss/logistic_loss/sub_grad/Neg"
  op: "Neg"
  input: "training/gradients/loss/dense_1_loss/logistic_loss/sub_grad/Sum_1"
  device: "/replica:0/task:0/device:CPU:0"
  attr {
    key: "T"
    value {
      type: DT_FLOAT
    }
  }
  attr {
    key: "_output_shapes"
    value {
      list {
        shape {
          unknown_rank: true
        }
      }
    }
  }
}
node {
  name: "training/gradients/loss/dense_1_loss/logistic_loss/sub_grad/Reshape_1"
  op: "Reshape"
  input: "training/gradients/loss/dense_1_loss/logistic_loss/sub_grad/Neg"
  input: "training/gradients/loss/dense_1_loss/logistic_loss/sub_grad/Shape_1"
  device: "/replica:0/task:0/device:CPU:0"
  attr {
    key: "T"
    value {
      type: DT_FLOAT
    }
  }
  attr {
    key: "Tshape"
    value {
      type: DT_INT32
    }
  }
  attr {
    key: "_output_shapes"
    value {
      list {
        shape {
          dim {
            size: -1
          }
          dim {
            size: 1
          }
        }
      }
    }
  }
}
node {
  name: "training/gradients/loss/dense_1_loss/logistic_loss/sub_grad/tuple/group_deps"
  op: "NoOp"
  input: "^training/gradients/loss/dense_1_loss/logistic_loss/sub_grad/Reshape"
  input: "^training/gradients/loss/dense_1_loss/logistic_loss/sub_grad/Reshape_1"
  device: "/replica:0/task:0/device:CPU:0"
}
node {
  name: "training/gradients/loss/dense_1_loss/logistic_loss/sub_grad/tuple/control_dependency"
  op: "Identity"
  input: "training/gradients/loss/dense_1_loss/logistic_loss/sub_grad/Reshape"
  input: "^training/gradients/loss/dense_1_loss/logistic_loss/sub_grad/tuple/group_deps"
  device: "/replica:0/task:0/device:CPU:0"
  attr {
    key: "T"
    value {
      type: DT_FLOAT
    }
  }
  attr {
    key: "_class"
    value {
      list {
        s: "loc:@training/gradients/loss/dense_1_loss/logistic_loss/sub_grad/Reshape"
      }
    }
  }
  attr {
    key: "_output_shapes"
    value {
      list {
        shape {
          dim {
            size: -1
          }
          dim {
            size: 1
          }
        }
      }
    }
  }
}
node {
  name: "training/gradients/loss/dense_1_loss/logistic_loss/sub_grad/tuple/control_dependency_1"
  op: "Identity"
  input: "training/gradients/loss/dense_1_loss/logistic_loss/sub_grad/Reshape_1"
  input: "^training/gradients/loss/dense_1_loss/logistic_loss/sub_grad/tuple/group_deps"
  device: "/replica:0/task:0/device:CPU:0"
  attr {
    key: "T"
    value {
      type: DT_FLOAT
    }
  }
  attr {
    key: "_class"
    value {
      list {
        s: "loc:@training/gradients/loss/dense_1_loss/logistic_loss/sub_grad/Reshape_1"
      }
    }
  }
  attr {
    key: "_output_shapes"
    value {
      list {
        shape {
          dim {
            size: -1
          }
          dim {
            size: 1
          }
        }
      }
    }
  }
}
node {
  name: "training/gradients/loss/dense_1_loss/logistic_loss/Log1p_grad/add/x"
  op: "Const"
  input: "^training/gradients/loss/dense_1_loss/logistic_loss_grad/tuple/control_dependency_1"
  device: "/replica:0/task:0/device:CPU:0"
  attr {
    key: "_output_shapes"
    value {
      list {
        shape {
        }
      }
    }
  }
  attr {
    key: "dtype"
    value {
      type: DT_FLOAT
    }
  }
  attr {
    key: "value"
    value {
      tensor {
        dtype: DT_FLOAT
        tensor_shape {
        }
        float_val: 1.0
      }
    }
  }
}
node {
  name: "training/gradients/loss/dense_1_loss/logistic_loss/Log1p_grad/add"
  op: "Add"
  input: "training/gradients/loss/dense_1_loss/logistic_loss/Log1p_grad/add/x"
  input: "loss/dense_1_loss/logistic_loss/Exp"
  device: "/replica:0/task:0/device:CPU:0"
  attr {
    key: "T"
    value {
      type: DT_FLOAT
    }
  }
  attr {
    key: "_output_shapes"
    value {
      list {
        shape {
          dim {
            size: -1
          }
          dim {
            size: 1
          }
        }
      }
    }
  }
}
node {
  name: "training/gradients/loss/dense_1_loss/logistic_loss/Log1p_grad/Reciprocal"
  op: "Reciprocal"
  input: "training/gradients/loss/dense_1_loss/logistic_loss/Log1p_grad/add"
  device: "/replica:0/task:0/device:CPU:0"
  attr {
    key: "T"
    value {
      type: DT_FLOAT
    }
  }
  attr {
    key: "_output_shapes"
    value {
      list {
        shape {
          dim {
            size: -1
          }
          dim {
            size: 1
          }
        }
      }
    }
  }
}
node {
  name: "training/gradients/loss/dense_1_loss/logistic_loss/Log1p_grad/mul"
  op: "Mul"
  input: "training/gradients/loss/dense_1_loss/logistic_loss_grad/tuple/control_dependency_1"
  input: "training/gradients/loss/dense_1_loss/logistic_loss/Log1p_grad/Reciprocal"
  device: "/replica:0/task:0/device:CPU:0"
  attr {
    key: "T"
    value {
      type: DT_FLOAT
    }
  }
  attr {
    key: "_output_shapes"
    value {
      list {
        shape {
          dim {
            size: -1
          }
          dim {
            size: 1
          }
        }
      }
    }
  }
}
node {
  name: "training/gradients/loss/dense_1_loss/logistic_loss/Select_grad/zeros_like"
  op: "ZerosLike"
  input: "dense_1/BiasAdd"
  device: "/replica:0/task:0/device:CPU:0"
  attr {
    key: "T"
    value {
      type: DT_FLOAT
    }
  }
  attr {
    key: "_output_shapes"
    value {
      list {
        shape {
          dim {
            size: -1
          }
          dim {
            size: 1
          }
        }
      }
    }
  }
}
node {
  name: "training/gradients/loss/dense_1_loss/logistic_loss/Select_grad/Select"
  op: "Select"
  input: "loss/dense_1_loss/logistic_loss/GreaterEqual"
  input: "training/gradients/loss/dense_1_loss/logistic_loss/sub_grad/tuple/control_dependency"
  input: "training/gradients/loss/dense_1_loss/logistic_loss/Select_grad/zeros_like"
  device: "/replica:0/task:0/device:CPU:0"
  attr {
    key: "T"
    value {
      type: DT_FLOAT
    }
  }
  attr {
    key: "_output_shapes"
    value {
      list {
        shape {
          dim {
            size: -1
          }
          dim {
            size: 1
          }
        }
      }
    }
  }
}
node {
  name: "training/gradients/loss/dense_1_loss/logistic_loss/Select_grad/Select_1"
  op: "Select"
  input: "loss/dense_1_loss/logistic_loss/GreaterEqual"
  input: "training/gradients/loss/dense_1_loss/logistic_loss/Select_grad/zeros_like"
  input: "training/gradients/loss/dense_1_loss/logistic_loss/sub_grad/tuple/control_dependency"
  device: "/replica:0/task:0/device:CPU:0"
  attr {
    key: "T"
    value {
      type: DT_FLOAT
    }
  }
  attr {
    key: "_output_shapes"
    value {
      list {
        shape {
          dim {
            size: -1
          }
          dim {
            size: 1
          }
        }
      }
    }
  }
}
node {
  name: "training/gradients/loss/dense_1_loss/logistic_loss/Select_grad/tuple/group_deps"
  op: "NoOp"
  input: "^training/gradients/loss/dense_1_loss/logistic_loss/Select_grad/Select"
  input: "^training/gradients/loss/dense_1_loss/logistic_loss/Select_grad/Select_1"
  device: "/replica:0/task:0/device:CPU:0"
}
node {
  name: "training/gradients/loss/dense_1_loss/logistic_loss/Select_grad/tuple/control_dependency"
  op: "Identity"
  input: "training/gradients/loss/dense_1_loss/logistic_loss/Select_grad/Select"
  input: "^training/gradients/loss/dense_1_loss/logistic_loss/Select_grad/tuple/group_deps"
  device: "/replica:0/task:0/device:CPU:0"
  attr {
    key: "T"
    value {
      type: DT_FLOAT
    }
  }
  attr {
    key: "_class"
    value {
      list {
        s: "loc:@training/gradients/loss/dense_1_loss/logistic_loss/Select_grad/Select"
      }
    }
  }
  attr {
    key: "_output_shapes"
    value {
      list {
        shape {
          dim {
            size: -1
          }
          dim {
            size: 1
          }
        }
      }
    }
  }
}
node {
  name: "training/gradients/loss/dense_1_loss/logistic_loss/Select_grad/tuple/control_dependency_1"
  op: "Identity"
  input: "training/gradients/loss/dense_1_loss/logistic_loss/Select_grad/Select_1"
  input: "^training/gradients/loss/dense_1_loss/logistic_loss/Select_grad/tuple/group_deps"
  device: "/replica:0/task:0/device:CPU:0"
  attr {
    key: "T"
    value {
      type: DT_FLOAT
    }
  }
  attr {
    key: "_class"
    value {
      list {
        s: "loc:@training/gradients/loss/dense_1_loss/logistic_loss/Select_grad/Select_1"
      }
    }
  }
  attr {
    key: "_output_shapes"
    value {
      list {
        shape {
          dim {
            size: -1
          }
          dim {
            size: 1
          }
        }
      }
    }
  }
}
node {
  name: "training/gradients/loss/dense_1_loss/logistic_loss/mul_grad/Shape"
  op: "Shape"
  input: "dense_1/BiasAdd"
  device: "/replica:0/task:0/device:CPU:0"
  attr {
    key: "T"
    value {
      type: DT_FLOAT
    }
  }
  attr {
    key: "_output_shapes"
    value {
      list {
        shape {
          dim {
            size: 2
          }
        }
      }
    }
  }
  attr {
    key: "out_type"
    value {
      type: DT_INT32
    }
  }
}
node {
  name: "training/gradients/loss/dense_1_loss/logistic_loss/mul_grad/Shape_1"
  op: "Shape"
  input: "Cast_1"
  device: "/replica:0/task:0/device:CPU:0"
  attr {
    key: "T"
    value {
      type: DT_FLOAT
    }
  }
  attr {
    key: "_output_shapes"
    value {
      list {
        shape {
          dim {
            size: 2
          }
        }
      }
    }
  }
  attr {
    key: "out_type"
    value {
      type: DT_INT32
    }
  }
}
node {
  name: "training/gradients/loss/dense_1_loss/logistic_loss/mul_grad/BroadcastGradientArgs"
  op: "BroadcastGradientArgs"
  input: "training/gradients/loss/dense_1_loss/logistic_loss/mul_grad/Shape"
  input: "training/gradients/loss/dense_1_loss/logistic_loss/mul_grad/Shape_1"
  device: "/replica:0/task:0/device:CPU:0"
  attr {
    key: "T"
    value {
      type: DT_INT32
    }
  }
  attr {
    key: "_output_shapes"
    value {
      list {
        shape {
          dim {
            size: -1
          }
        }
        shape {
          dim {
            size: -1
          }
        }
      }
    }
  }
}
node {
  name: "training/gradients/loss/dense_1_loss/logistic_loss/mul_grad/Mul"
  op: "Mul"
  input: "training/gradients/loss/dense_1_loss/logistic_loss/sub_grad/tuple/control_dependency_1"
  input: "Cast_1"
  device: "/replica:0/task:0/device:CPU:0"
  attr {
    key: "T"
    value {
      type: DT_FLOAT
    }
  }
  attr {
    key: "_output_shapes"
    value {
      list {
        shape {
          dim {
            size: -1
          }
          dim {
            size: 1
          }
        }
      }
    }
  }
}
node {
  name: "training/gradients/loss/dense_1_loss/logistic_loss/mul_grad/Sum"
  op: "Sum"
  input: "training/gradients/loss/dense_1_loss/logistic_loss/mul_grad/Mul"
  input: "training/gradients/loss/dense_1_loss/logistic_loss/mul_grad/BroadcastGradientArgs"
  device: "/replica:0/task:0/device:CPU:0"
  attr {
    key: "T"
    value {
      type: DT_FLOAT
    }
  }
  attr {
    key: "Tidx"
    value {
      type: DT_INT32
    }
  }
  attr {
    key: "_output_shapes"
    value {
      list {
        shape {
          unknown_rank: true
        }
      }
    }
  }
  attr {
    key: "keep_dims"
    value {
      b: false
    }
  }
}
node {
  name: "training/gradients/loss/dense_1_loss/logistic_loss/mul_grad/Reshape"
  op: "Reshape"
  input: "training/gradients/loss/dense_1_loss/logistic_loss/mul_grad/Sum"
  input: "training/gradients/loss/dense_1_loss/logistic_loss/mul_grad/Shape"
  device: "/replica:0/task:0/device:CPU:0"
  attr {
    key: "T"
    value {
      type: DT_FLOAT
    }
  }
  attr {
    key: "Tshape"
    value {
      type: DT_INT32
    }
  }
  attr {
    key: "_output_shapes"
    value {
      list {
        shape {
          dim {
            size: -1
          }
          dim {
            size: 1
          }
        }
      }
    }
  }
}
node {
  name: "training/gradients/loss/dense_1_loss/logistic_loss/mul_grad/Mul_1"
  op: "Mul"
  input: "dense_1/BiasAdd"
  input: "training/gradients/loss/dense_1_loss/logistic_loss/sub_grad/tuple/control_dependency_1"
  device: "/replica:0/task:0/device:CPU:0"
  attr {
    key: "T"
    value {
      type: DT_FLOAT
    }
  }
  attr {
    key: "_output_shapes"
    value {
      list {
        shape {
          dim {
            size: -1
          }
          dim {
            size: 1
          }
        }
      }
    }
  }
}
node {
  name: "training/gradients/loss/dense_1_loss/logistic_loss/mul_grad/Sum_1"
  op: "Sum"
  input: "training/gradients/loss/dense_1_loss/logistic_loss/mul_grad/Mul_1"
  input: "training/gradients/loss/dense_1_loss/logistic_loss/mul_grad/BroadcastGradientArgs:1"
  device: "/replica:0/task:0/device:CPU:0"
  attr {
    key: "T"
    value {
      type: DT_FLOAT
    }
  }
  attr {
    key: "Tidx"
    value {
      type: DT_INT32
    }
  }
  attr {
    key: "_output_shapes"
    value {
      list {
        shape {
          unknown_rank: true
        }
      }
    }
  }
  attr {
    key: "keep_dims"
    value {
      b: false
    }
  }
}
node {
  name: "training/gradients/loss/dense_1_loss/logistic_loss/mul_grad/Reshape_1"
  op: "Reshape"
  input: "training/gradients/loss/dense_1_loss/logistic_loss/mul_grad/Sum_1"
  input: "training/gradients/loss/dense_1_loss/logistic_loss/mul_grad/Shape_1"
  device: "/replica:0/task:0/device:CPU:0"
  attr {
    key: "T"
    value {
      type: DT_FLOAT
    }
  }
  attr {
    key: "Tshape"
    value {
      type: DT_INT32
    }
  }
  attr {
    key: "_output_shapes"
    value {
      list {
        shape {
          dim {
            size: -1
          }
          dim {
            size: 1
          }
        }
      }
    }
  }
}
node {
  name: "training/gradients/loss/dense_1_loss/logistic_loss/mul_grad/tuple/group_deps"
  op: "NoOp"
  input: "^training/gradients/loss/dense_1_loss/logistic_loss/mul_grad/Reshape"
  input: "^training/gradients/loss/dense_1_loss/logistic_loss/mul_grad/Reshape_1"
  device: "/replica:0/task:0/device:CPU:0"
}
node {
  name: "training/gradients/loss/dense_1_loss/logistic_loss/mul_grad/tuple/control_dependency"
  op: "Identity"
  input: "training/gradients/loss/dense_1_loss/logistic_loss/mul_grad/Reshape"
  input: "^training/gradients/loss/dense_1_loss/logistic_loss/mul_grad/tuple/group_deps"
  device: "/replica:0/task:0/device:CPU:0"
  attr {
    key: "T"
    value {
      type: DT_FLOAT
    }
  }
  attr {
    key: "_class"
    value {
      list {
        s: "loc:@training/gradients/loss/dense_1_loss/logistic_loss/mul_grad/Reshape"
      }
    }
  }
  attr {
    key: "_output_shapes"
    value {
      list {
        shape {
          dim {
            size: -1
          }
          dim {
            size: 1
          }
        }
      }
    }
  }
}
node {
  name: "training/gradients/loss/dense_1_loss/logistic_loss/mul_grad/tuple/control_dependency_1"
  op: "Identity"
  input: "training/gradients/loss/dense_1_loss/logistic_loss/mul_grad/Reshape_1"
  input: "^training/gradients/loss/dense_1_loss/logistic_loss/mul_grad/tuple/group_deps"
  device: "/replica:0/task:0/device:CPU:0"
  attr {
    key: "T"
    value {
      type: DT_FLOAT
    }
  }
  attr {
    key: "_class"
    value {
      list {
        s: "loc:@training/gradients/loss/dense_1_loss/logistic_loss/mul_grad/Reshape_1"
      }
    }
  }
  attr {
    key: "_output_shapes"
    value {
      list {
        shape {
          dim {
            size: -1
          }
          dim {
            size: 1
          }
        }
      }
    }
  }
}
node {
  name: "training/gradients/loss/dense_1_loss/logistic_loss/Exp_grad/mul"
  op: "Mul"
  input: "training/gradients/loss/dense_1_loss/logistic_loss/Log1p_grad/mul"
  input: "loss/dense_1_loss/logistic_loss/Exp"
  device: "/replica:0/task:0/device:CPU:0"
  attr {
    key: "T"
    value {
      type: DT_FLOAT
    }
  }
  attr {
    key: "_output_shapes"
    value {
      list {
        shape {
          dim {
            size: -1
          }
          dim {
            size: 1
          }
        }
      }
    }
  }
}
node {
  name: "training/gradients/loss/dense_1_loss/logistic_loss/Select_1_grad/zeros_like"
  op: "ZerosLike"
  input: "loss/dense_1_loss/logistic_loss/Neg"
  device: "/replica:0/task:0/device:CPU:0"
  attr {
    key: "T"
    value {
      type: DT_FLOAT
    }
  }
  attr {
    key: "_output_shapes"
    value {
      list {
        shape {
          dim {
            size: -1
          }
          dim {
            size: 1
          }
        }
      }
    }
  }
}
node {
  name: "training/gradients/loss/dense_1_loss/logistic_loss/Select_1_grad/Select"
  op: "Select"
  input: "loss/dense_1_loss/logistic_loss/GreaterEqual"
  input: "training/gradients/loss/dense_1_loss/logistic_loss/Exp_grad/mul"
  input: "training/gradients/loss/dense_1_loss/logistic_loss/Select_1_grad/zeros_like"
  device: "/replica:0/task:0/device:CPU:0"
  attr {
    key: "T"
    value {
      type: DT_FLOAT
    }
  }
  attr {
    key: "_output_shapes"
    value {
      list {
        shape {
          dim {
            size: -1
          }
          dim {
            size: 1
          }
        }
      }
    }
  }
}
node {
  name: "training/gradients/loss/dense_1_loss/logistic_loss/Select_1_grad/Select_1"
  op: "Select"
  input: "loss/dense_1_loss/logistic_loss/GreaterEqual"
  input: "training/gradients/loss/dense_1_loss/logistic_loss/Select_1_grad/zeros_like"
  input: "training/gradients/loss/dense_1_loss/logistic_loss/Exp_grad/mul"
  device: "/replica:0/task:0/device:CPU:0"
  attr {
    key: "T"
    value {
      type: DT_FLOAT
    }
  }
  attr {
    key: "_output_shapes"
    value {
      list {
        shape {
          dim {
            size: -1
          }
          dim {
            size: 1
          }
        }
      }
    }
  }
}
node {
  name: "training/gradients/loss/dense_1_loss/logistic_loss/Select_1_grad/tuple/group_deps"
  op: "NoOp"
  input: "^training/gradients/loss/dense_1_loss/logistic_loss/Select_1_grad/Select"
  input: "^training/gradients/loss/dense_1_loss/logistic_loss/Select_1_grad/Select_1"
  device: "/replica:0/task:0/device:CPU:0"
}
node {
  name: "training/gradients/loss/dense_1_loss/logistic_loss/Select_1_grad/tuple/control_dependency"
  op: "Identity"
  input: "training/gradients/loss/dense_1_loss/logistic_loss/Select_1_grad/Select"
  input: "^training/gradients/loss/dense_1_loss/logistic_loss/Select_1_grad/tuple/group_deps"
  device: "/replica:0/task:0/device:CPU:0"
  attr {
    key: "T"
    value {
      type: DT_FLOAT
    }
  }
  attr {
    key: "_class"
    value {
      list {
        s: "loc:@training/gradients/loss/dense_1_loss/logistic_loss/Select_1_grad/Select"
      }
    }
  }
  attr {
    key: "_output_shapes"
    value {
      list {
        shape {
          dim {
            size: -1
          }
          dim {
            size: 1
          }
        }
      }
    }
  }
}
node {
  name: "training/gradients/loss/dense_1_loss/logistic_loss/Select_1_grad/tuple/control_dependency_1"
  op: "Identity"
  input: "training/gradients/loss/dense_1_loss/logistic_loss/Select_1_grad/Select_1"
  input: "^training/gradients/loss/dense_1_loss/logistic_loss/Select_1_grad/tuple/group_deps"
  device: "/replica:0/task:0/device:CPU:0"
  attr {
    key: "T"
    value {
      type: DT_FLOAT
    }
  }
  attr {
    key: "_class"
    value {
      list {
        s: "loc:@training/gradients/loss/dense_1_loss/logistic_loss/Select_1_grad/Select_1"
      }
    }
  }
  attr {
    key: "_output_shapes"
    value {
      list {
        shape {
          dim {
            size: -1
          }
          dim {
            size: 1
          }
        }
      }
    }
  }
}
node {
  name: "training/gradients/loss/dense_1_loss/logistic_loss/Neg_grad/Neg"
  op: "Neg"
  input: "training/gradients/loss/dense_1_loss/logistic_loss/Select_1_grad/tuple/control_dependency"
  device: "/replica:0/task:0/device:CPU:0"
  attr {
    key: "T"
    value {
      type: DT_FLOAT
    }
  }
  attr {
    key: "_output_shapes"
    value {
      list {
        shape {
          dim {
            size: -1
          }
          dim {
            size: 1
          }
        }
      }
    }
  }
}
node {
  name: "training/gradients/AddN"
  op: "AddN"
  input: "training/gradients/loss/dense_1_loss/logistic_loss/Select_grad/tuple/control_dependency"
  input: "training/gradients/loss/dense_1_loss/logistic_loss/mul_grad/tuple/control_dependency"
  input: "training/gradients/loss/dense_1_loss/logistic_loss/Select_1_grad/tuple/control_dependency_1"
  input: "training/gradients/loss/dense_1_loss/logistic_loss/Neg_grad/Neg"
  device: "/replica:0/task:0/device:CPU:0"
  attr {
    key: "N"
    value {
      i: 4
    }
  }
  attr {
    key: "T"
    value {
      type: DT_FLOAT
    }
  }
  attr {
    key: "_class"
    value {
      list {
        s: "loc:@training/gradients/loss/dense_1_loss/logistic_loss/Select_grad/Select"
      }
    }
  }
  attr {
    key: "_output_shapes"
    value {
      list {
        shape {
          dim {
            size: -1
          }
          dim {
            size: 1
          }
        }
      }
    }
  }
}
node {
  name: "training/gradients/dense_1/BiasAdd_grad/BiasAddGrad"
  op: "BiasAddGrad"
  input: "training/gradients/AddN"
  device: "/replica:0/task:0/device:CPU:0"
  attr {
    key: "T"
    value {
      type: DT_FLOAT
    }
  }
  attr {
    key: "_output_shapes"
    value {
      list {
        shape {
          dim {
            size: 1
          }
        }
      }
    }
  }
  attr {
    key: "data_format"
    value {
      s: "NHWC"
    }
  }
}
node {
  name: "training/gradients/dense_1/BiasAdd_grad/tuple/group_deps"
  op: "NoOp"
  input: "^training/gradients/AddN"
  input: "^training/gradients/dense_1/BiasAdd_grad/BiasAddGrad"
  device: "/replica:0/task:0/device:CPU:0"
}
node {
  name: "training/gradients/dense_1/BiasAdd_grad/tuple/control_dependency"
  op: "Identity"
  input: "training/gradients/AddN"
  input: "^training/gradients/dense_1/BiasAdd_grad/tuple/group_deps"
  device: "/replica:0/task:0/device:CPU:0"
  attr {
    key: "T"
    value {
      type: DT_FLOAT
    }
  }
  attr {
    key: "_class"
    value {
      list {
        s: "loc:@training/gradients/loss/dense_1_loss/logistic_loss/Select_grad/Select"
      }
    }
  }
  attr {
    key: "_output_shapes"
    value {
      list {
        shape {
          dim {
            size: -1
          }
          dim {
            size: 1
          }
        }
      }
    }
  }
}
node {
  name: "training/gradients/dense_1/BiasAdd_grad/tuple/control_dependency_1"
  op: "Identity"
  input: "training/gradients/dense_1/BiasAdd_grad/BiasAddGrad"
  input: "^training/gradients/dense_1/BiasAdd_grad/tuple/group_deps"
  device: "/replica:0/task:0/device:CPU:0"
  attr {
    key: "T"
    value {
      type: DT_FLOAT
    }
  }
  attr {
    key: "_class"
    value {
      list {
        s: "loc:@training/gradients/dense_1/BiasAdd_grad/BiasAddGrad"
      }
    }
  }
  attr {
    key: "_output_shapes"
    value {
      list {
        shape {
          dim {
            size: 1
          }
        }
      }
    }
  }
}
node {
  name: "training/gradients/dense_1/MatMul_grad/MatMul"
  op: "MatMul"
  input: "training/gradients/dense_1/BiasAdd_grad/tuple/control_dependency"
  input: "dense_1/MatMul/ReadVariableOp"
  device: "/replica:0/task:0/device:CPU:0"
  attr {
    key: "T"
    value {
      type: DT_FLOAT
    }
  }
  attr {
    key: "_output_shapes"
    value {
      list {
        shape {
          dim {
            size: -1
          }
          dim {
            size: 16
          }
        }
      }
    }
  }
  attr {
    key: "transpose_a"
    value {
      b: false
    }
  }
  attr {
    key: "transpose_b"
    value {
      b: true
    }
  }
}
node {
  name: "training/gradients/dense_1/MatMul_grad/MatMul_1"
  op: "MatMul"
  input: "dense/Relu"
  input: "training/gradients/dense_1/BiasAdd_grad/tuple/control_dependency"
  device: "/replica:0/task:0/device:CPU:0"
  attr {
    key: "T"
    value {
      type: DT_FLOAT
    }
  }
  attr {
    key: "_output_shapes"
    value {
      list {
        shape {
          dim {
            size: 16
          }
          dim {
            size: 1
          }
        }
      }
    }
  }
  attr {
    key: "transpose_a"
    value {
      b: true
    }
  }
  attr {
    key: "transpose_b"
    value {
      b: false
    }
  }
}
node {
  name: "training/gradients/dense_1/MatMul_grad/tuple/group_deps"
  op: "NoOp"
  input: "^training/gradients/dense_1/MatMul_grad/MatMul"
  input: "^training/gradients/dense_1/MatMul_grad/MatMul_1"
  device: "/replica:0/task:0/device:CPU:0"
}
node {
  name: "training/gradients/dense_1/MatMul_grad/tuple/control_dependency"
  op: "Identity"
  input: "training/gradients/dense_1/MatMul_grad/MatMul"
  input: "^training/gradients/dense_1/MatMul_grad/tuple/group_deps"
  device: "/replica:0/task:0/device:CPU:0"
  attr {
    key: "T"
    value {
      type: DT_FLOAT
    }
  }
  attr {
    key: "_class"
    value {
      list {
        s: "loc:@training/gradients/dense_1/MatMul_grad/MatMul"
      }
    }
  }
  attr {
    key: "_output_shapes"
    value {
      list {
        shape {
          dim {
            size: -1
          }
          dim {
            size: 16
          }
        }
      }
    }
  }
}
node {
  name: "training/gradients/dense_1/MatMul_grad/tuple/control_dependency_1"
  op: "Identity"
  input: "training/gradients/dense_1/MatMul_grad/MatMul_1"
  input: "^training/gradients/dense_1/MatMul_grad/tuple/group_deps"
  device: "/replica:0/task:0/device:CPU:0"
  attr {
    key: "T"
    value {
      type: DT_FLOAT
    }
  }
  attr {
    key: "_class"
    value {
      list {
        s: "loc:@training/gradients/dense_1/MatMul_grad/MatMul_1"
      }
    }
  }
  attr {
    key: "_output_shapes"
    value {
      list {
        shape {
          dim {
            size: 16
          }
          dim {
            size: 1
          }
        }
      }
    }
  }
}
node {
  name: "training/gradients/dense/Relu_grad/ReluGrad"
  op: "ReluGrad"
  input: "training/gradients/dense_1/MatMul_grad/tuple/control_dependency"
  input: "dense/Relu"
  device: "/replica:0/task:0/device:CPU:0"
  attr {
    key: "T"
    value {
      type: DT_FLOAT
    }
  }
  attr {
    key: "_output_shapes"
    value {
      list {
        shape {
          dim {
            size: -1
          }
          dim {
            size: 16
          }
        }
      }
    }
  }
}
node {
  name: "training/gradients/dense/BiasAdd_grad/BiasAddGrad"
  op: "BiasAddGrad"
  input: "training/gradients/dense/Relu_grad/ReluGrad"
  device: "/replica:0/task:0/device:CPU:0"
  attr {
    key: "T"
    value {
      type: DT_FLOAT
    }
  }
  attr {
    key: "_output_shapes"
    value {
      list {
        shape {
          dim {
            size: 16
          }
        }
      }
    }
  }
  attr {
    key: "data_format"
    value {
      s: "NHWC"
    }
  }
}
node {
  name: "training/gradients/dense/BiasAdd_grad/tuple/group_deps"
  op: "NoOp"
  input: "^training/gradients/dense/BiasAdd_grad/BiasAddGrad"
  input: "^training/gradients/dense/Relu_grad/ReluGrad"
  device: "/replica:0/task:0/device:CPU:0"
}
node {
  name: "training/gradients/dense/BiasAdd_grad/tuple/control_dependency"
  op: "Identity"
  input: "training/gradients/dense/Relu_grad/ReluGrad"
  input: "^training/gradients/dense/BiasAdd_grad/tuple/group_deps"
  device: "/replica:0/task:0/device:CPU:0"
  attr {
    key: "T"
    value {
      type: DT_FLOAT
    }
  }
  attr {
    key: "_class"
    value {
      list {
        s: "loc:@training/gradients/dense/Relu_grad/ReluGrad"
      }
    }
  }
  attr {
    key: "_output_shapes"
    value {
      list {
        shape {
          dim {
            size: -1
          }
          dim {
            size: 16
          }
        }
      }
    }
  }
}
node {
  name: "training/gradients/dense/BiasAdd_grad/tuple/control_dependency_1"
  op: "Identity"
  input: "training/gradients/dense/BiasAdd_grad/BiasAddGrad"
  input: "^training/gradients/dense/BiasAdd_grad/tuple/group_deps"
  device: "/replica:0/task:0/device:CPU:0"
  attr {
    key: "T"
    value {
      type: DT_FLOAT
    }
  }
  attr {
    key: "_class"
    value {
      list {
        s: "loc:@training/gradients/dense/BiasAdd_grad/BiasAddGrad"
      }
    }
  }
  attr {
    key: "_output_shapes"
    value {
      list {
        shape {
          dim {
            size: 16
          }
        }
      }
    }
  }
}
node {
  name: "training/gradients/dense/MatMul_grad/MatMul"
  op: "MatMul"
  input: "training/gradients/dense/BiasAdd_grad/tuple/control_dependency"
  input: "dense/MatMul/ReadVariableOp"
  device: "/replica:0/task:0/device:CPU:0"
  attr {
    key: "T"
    value {
      type: DT_FLOAT
    }
  }
  attr {
    key: "_output_shapes"
    value {
      list {
        shape {
          dim {
            size: -1
          }
          dim {
            size: 10
          }
        }
      }
    }
  }
  attr {
    key: "transpose_a"
    value {
      b: false
    }
  }
  attr {
    key: "transpose_b"
    value {
      b: true
    }
  }
}
node {
  name: "training/gradients/dense/MatMul_grad/MatMul_1"
  op: "MatMul"
  input: "IteratorGetNext"
  input: "training/gradients/dense/BiasAdd_grad/tuple/control_dependency"
  device: "/replica:0/task:0/device:CPU:0"
  attr {
    key: "T"
    value {
      type: DT_FLOAT
    }
  }
  attr {
    key: "_output_shapes"
    value {
      list {
        shape {
          dim {
            size: 10
          }
          dim {
            size: 16
          }
        }
      }
    }
  }
  attr {
    key: "transpose_a"
    value {
      b: true
    }
  }
  attr {
    key: "transpose_b"
    value {
      b: false
    }
  }
}
node {
  name: "training/gradients/dense/MatMul_grad/tuple/group_deps"
  op: "NoOp"
  input: "^training/gradients/dense/MatMul_grad/MatMul"
  input: "^training/gradients/dense/MatMul_grad/MatMul_1"
  device: "/replica:0/task:0/device:CPU:0"
}
node {
  name: "training/gradients/dense/MatMul_grad/tuple/control_dependency"
  op: "Identity"
  input: "training/gradients/dense/MatMul_grad/MatMul"
  input: "^training/gradients/dense/MatMul_grad/tuple/group_deps"
  device: "/replica:0/task:0/device:CPU:0"
  attr {
    key: "T"
    value {
      type: DT_FLOAT
    }
  }
  attr {
    key: "_class"
    value {
      list {
        s: "loc:@training/gradients/dense/MatMul_grad/MatMul"
      }
    }
  }
  attr {
    key: "_output_shapes"
    value {
      list {
        shape {
          dim {
            size: -1
          }
          dim {
            size: 10
          }
        }
      }
    }
  }
}
node {
  name: "training/gradients/dense/MatMul_grad/tuple/control_dependency_1"
  op: "Identity"
  input: "training/gradients/dense/MatMul_grad/MatMul_1"
  input: "^training/gradients/dense/MatMul_grad/tuple/group_deps"
  device: "/replica:0/task:0/device:CPU:0"
  attr {
    key: "T"
    value {
      type: DT_FLOAT
    }
  }
  attr {
    key: "_class"
    value {
      list {
        s: "loc:@training/gradients/dense/MatMul_grad/MatMul_1"
      }
    }
  }
  attr {
    key: "_output_shapes"
    value {
      list {
        shape {
          dim {
            size: 10
          }
          dim {
            size: 16
          }
        }
      }
    }
  }
}
node {
  name: "training/Identity"
  op: "Identity"
  input: "training/gradients/dense/MatMul_grad/tuple/control_dependency_1"
  device: "/replica:0/task:0/device:CPU:0"
  attr {
    key: "T"
    value {
      type: DT_FLOAT
    }
  }
  attr {
    key: "_output_shapes"
    value {
      list {
        shape {
          dim {
            size: 10
          }
          dim {
            size: 16
          }
        }
      }
    }
  }
}
node {
  name: "training/Identity_1"
  op: "Identity"
  input: "training/gradients/dense/BiasAdd_grad/tuple/control_dependency_1"
  device: "/replica:0/task:0/device:CPU:0"
  attr {
    key: "T"
    value {
      type: DT_FLOAT
    }
  }
  attr {
    key: "_output_shapes"
    value {
      list {
        shape {
          dim {
            size: 16
          }
        }
      }
    }
  }
}
node {
  name: "training/Identity_2"
  op: "Identity"
  input: "training/gradients/dense_1/MatMul_grad/tuple/control_dependency_1"
  device: "/replica:0/task:0/device:CPU:0"
  attr {
    key: "T"
    value {
      type: DT_FLOAT
    }
  }
  attr {
    key: "_output_shapes"
    value {
      list {
        shape {
          dim {
            size: 16
          }
          dim {
            size: 1
          }
        }
      }
    }
  }
}
node {
  name: "training/Identity_3"
  op: "Identity"
  input: "training/gradients/dense_1/BiasAdd_grad/tuple/control_dependency_1"
  device: "/replica:0/task:0/device:CPU:0"
  attr {
    key: "T"
    value {
      type: DT_FLOAT
    }
  }
  attr {
    key: "_output_shapes"
    value {
      list {
        shape {
          dim {
            size: 1
          }
        }
      }
    }
  }
}
node {
  name: "training/GradientDescent/learning_rate"
  op: "Const"
  attr {
    key: "_output_shapes"
    value {
      list {
        shape {
        }
      }
    }
  }
  attr {
    key: "dtype"
    value {
      type: DT_FLOAT
    }
  }
  attr {
    key: "value"
    value {
      tensor {
        dtype: DT_FLOAT
        tensor_shape {
        }
        float_val: 0.20000000298023224
      }
    }
  }
}
node {
  name: "training/GradientDescent/update_0/update_dense/kernel/ResourceApplyGradientDescent"
  op: "ResourceApplyGradientDescent"
  input: "dense/kernel"
  input: "training/GradientDescent/learning_rate"
  input: "training/Identity"
  device: "/replica:0/task:0/device:CPU:0"
  attr {
    key: "T"
    value {
      type: DT_FLOAT
    }
  }
  attr {
    key: "use_locking"
    value {
      b: false
    }
  }
}
node {
  name: "training/GradientDescent/update_0_1/update_dense/bias/ResourceApplyGradientDescent"
  op: "ResourceApplyGradientDescent"
  input: "dense/bias"
  input: "training/GradientDescent/learning_rate"
  input: "training/Identity_1"
  device: "/replica:0/task:0/device:CPU:0"
  attr {
    key: "T"
    value {
      type: DT_FLOAT
    }
  }
  attr {
    key: "use_locking"
    value {
      b: false
    }
  }
}
node {
  name: "training/GradientDescent/update_0_2/update_dense_1/kernel/ResourceApplyGradientDescent"
  op: "ResourceApplyGradientDescent"
  input: "dense_1/kernel"
  input: "training/GradientDescent/learning_rate"
  input: "training/Identity_2"
  device: "/replica:0/task:0/device:CPU:0"
  attr {
    key: "T"
    value {
      type: DT_FLOAT
    }
  }
  attr {
    key: "use_locking"
    value {
      b: false
    }
  }
}
node {
  name: "training/GradientDescent/update_0_3/update_dense_1/bias/ResourceApplyGradientDescent"
  op: "ResourceApplyGradientDescent"
  input: "dense_1/bias"
  input: "training/GradientDescent/learning_rate"
  input: "training/Identity_3"
  device: "/replica:0/task:0/device:CPU:0"
  attr {
    key: "T"
    value {
      type: DT_FLOAT
    }
  }
  attr {
    key: "use_locking"
    value {
      b: false
    }
  }
}
node {
  name: "training/GradientDescent/update_0_4/update"
  op: "NoOp"
  input: "^training/GradientDescent/update_0/update_dense/kernel/ResourceApplyGradientDescent"
  input: "^training/GradientDescent/update_0_1/update_dense/bias/ResourceApplyGradientDescent"
  input: "^training/GradientDescent/update_0_2/update_dense_1/kernel/ResourceApplyGradientDescent"
  input: "^training/GradientDescent/update_0_3/update_dense_1/bias/ResourceApplyGradientDescent"
  device: "/replica:0/task:0/device:CPU:0"
}
node {
  name: "training/GradientDescent/update_0_5/Const"
  op: "Const"
  input: "^training/GradientDescent/update_0_4/update"
  device: "/replica:0/task:0/device:CPU:0"
  attr {
    key: "_output_shapes"
    value {
      list {
        shape {
        }
      }
    }
  }
  attr {
    key: "dtype"
    value {
      type: DT_INT64
    }
  }
  attr {
    key: "value"
    value {
      tensor {
        dtype: DT_INT64
        tensor_shape {
        }
        int64_val: 1
      }
    }
  }
}
node {
  name: "training/GradientDescent/update_0_5/AssignAddVariableOp"
  op: "AssignAddVariableOp"
  input: "global_step"
  input: "training/GradientDescent/update_0_5/Const"
  device: "/replica:0/task:0/device:CPU:0"
  attr {
    key: "dtype"
    value {
      type: DT_INT64
    }
  }
}
node {
  name: "training/GradientDescent/update_0_5/ReadVariableOp"
  op: "ReadVariableOp"
  input: "global_step"
  input: "^training/GradientDescent/update_0_4/update"
  input: "^training/GradientDescent/update_0_5/AssignAddVariableOp"
  device: "/replica:0/task:0/device:CPU:0"
  attr {
    key: "_output_shapes"
    value {
      list {
        shape {
        }
      }
    }
  }
  attr {
    key: "dtype"
    value {
      type: DT_INT64
    }
  }
}
node {
  name: "training_1/group_deps"
  op: "NoOp"
  input: "^loss/mul"
  input: "^training/GradientDescent/update_0_5/AssignAddVariableOp"
  device: "/replica:0/task:0/device:CPU:0"
}
node {
  name: "Identity_2"
  op: "Identity"
  input: "loss/mul"
  device: "/replica:0/task:0/device:CPU:0"
  attr {
    key: "T"
    value {
      type: DT_FLOAT
    }
  }
  attr {
    key: "_output_shapes"
    value {
      list {
        shape {
        }
      }
    }
  }
}
node {
  name: "Const_2"
  op: "Const"
  attr {
    key: "_output_shapes"
    value {
      list {
        shape {
        }
      }
    }
  }
  attr {
    key: "dtype"
    value {
      type: DT_INT32
    }
  }
  attr {
    key: "value"
    value {
      tensor {
        dtype: DT_INT32
        tensor_shape {
        }
        int_val: 0
      }
    }
  }
}
node {
  name: "Const_3"
  op: "Const"
  attr {
    key: "_output_shapes"
    value {
      list {
        shape {
        }
      }
    }
  }
  attr {
    key: "dtype"
    value {
      type: DT_INT32
    }
  }
  attr {
    key: "value"
    value {
      tensor {
        dtype: DT_INT32
        tensor_shape {
        }
        int_val: 0
      }
    }
  }
}
node {
  name: "report_uninitialized_variables/VarIsInitializedOp"
  op: "VarIsInitializedOp"
  input: "global_step"
  device: "/replica:0/task:0/device:CPU:0"
  attr {
    key: "_output_shapes"
    value {
      list {
        shape {
        }
      }
    }
  }
}
node {
  name: "report_uninitialized_variables/VarIsInitializedOp_1"
  op: "VarIsInitializedOp"
  input: "global_step"
  device: "/replica:0/task:0/device:CPU:0"
  attr {
    key: "_output_shapes"
    value {
      list {
        shape {
        }
      }
    }
  }
}
node {
  name: "report_uninitialized_variables/LogicalAnd"
  op: "LogicalAnd"
  input: "report_uninitialized_variables/VarIsInitializedOp"
  input: "report_uninitialized_variables/VarIsInitializedOp_1"
  device: "/replica:0/task:0/device:CPU:0"
  attr {
    key: "_output_shapes"
    value {
      list {
        shape {
        }
      }
    }
  }
}
node {
  name: "report_uninitialized_variables/VarIsInitializedOp_2"
  op: "VarIsInitializedOp"
  input: "dense/kernel"
  device: "/replica:0/task:0/device:CPU:0"
  attr {
    key: "_output_shapes"
    value {
      list {
        shape {
        }
      }
    }
  }
}
node {
  name: "report_uninitialized_variables/VarIsInitializedOp_3"
  op: "VarIsInitializedOp"
  input: "dense/kernel"
  device: "/replica:0/task:0/device:CPU:0"
  attr {
    key: "_output_shapes"
    value {
      list {
        shape {
        }
      }
    }
  }
}
node {
  name: "report_uninitialized_variables/LogicalAnd_1"
  op: "LogicalAnd"
  input: "report_uninitialized_variables/VarIsInitializedOp_2"
  input: "report_uninitialized_variables/VarIsInitializedOp_3"
  device: "/replica:0/task:0/device:CPU:0"
  attr {
    key: "_output_shapes"
    value {
      list {
        shape {
        }
      }
    }
  }
}
node {
  name: "report_uninitialized_variables/VarIsInitializedOp_4"
  op: "VarIsInitializedOp"
  input: "dense/bias"
  device: "/replica:0/task:0/device:CPU:0"
  attr {
    key: "_output_shapes"
    value {
      list {
        shape {
        }
      }
    }
  }
}
node {
  name: "report_uninitialized_variables/VarIsInitializedOp_5"
  op: "VarIsInitializedOp"
  input: "dense/bias"
  device: "/replica:0/task:0/device:CPU:0"
  attr {
    key: "_output_shapes"
    value {
      list {
        shape {
        }
      }
    }
  }
}
node {
  name: "report_uninitialized_variables/LogicalAnd_2"
  op: "LogicalAnd"
  input: "report_uninitialized_variables/VarIsInitializedOp_4"
  input: "report_uninitialized_variables/VarIsInitializedOp_5"
  device: "/replica:0/task:0/device:CPU:0"
  attr {
    key: "_output_shapes"
    value {
      list {
        shape {
        }
      }
    }
  }
}
node {
  name: "report_uninitialized_variables/VarIsInitializedOp_6"
  op: "VarIsInitializedOp"
  input: "dense_1/kernel"
  device: "/replica:0/task:0/device:CPU:0"
  attr {
    key: "_output_shapes"
    value {
      list {
        shape {
        }
      }
    }
  }
}
node {
  name: "report_uninitialized_variables/VarIsInitializedOp_7"
  op: "VarIsInitializedOp"
  input: "dense_1/kernel"
  device: "/replica:0/task:0/device:CPU:0"
  attr {
    key: "_output_shapes"
    value {
      list {
        shape {
        }
      }
    }
  }
}
node {
  name: "report_uninitialized_variables/LogicalAnd_3"
  op: "LogicalAnd"
  input: "report_uninitialized_variables/VarIsInitializedOp_6"
  input: "report_uninitialized_variables/VarIsInitializedOp_7"
  device: "/replica:0/task:0/device:CPU:0"
  attr {
    key: "_output_shapes"
    value {
      list {
        shape {
        }
      }
    }
  }
}
node {
  name: "report_uninitialized_variables/VarIsInitializedOp_8"
  op: "VarIsInitializedOp"
  input: "dense_1/bias"
  device: "/replica:0/task:0/device:CPU:0"
  attr {
    key: "_output_shapes"
    value {
      list {
        shape {
        }
      }
    }
  }
}
node {
  name: "report_uninitialized_variables/VarIsInitializedOp_9"
  op: "VarIsInitializedOp"
  input: "dense_1/bias"
  device: "/replica:0/task:0/device:CPU:0"
  attr {
    key: "_output_shapes"
    value {
      list {
        shape {
        }
      }
    }
  }
}
node {
  name: "report_uninitialized_variables/LogicalAnd_4"
  op: "LogicalAnd"
  input: "report_uninitialized_variables/VarIsInitializedOp_8"
  input: "report_uninitialized_variables/VarIsInitializedOp_9"
  device: "/replica:0/task:0/device:CPU:0"
  attr {
    key: "_output_shapes"
    value {
      list {
        shape {
        }
      }
    }
  }
}
node {
  name: "report_uninitialized_variables/stack"
  op: "Pack"
  input: "report_uninitialized_variables/LogicalAnd"
  input: "report_uninitialized_variables/LogicalAnd_1"
  input: "report_uninitialized_variables/LogicalAnd_2"
  input: "report_uninitialized_variables/LogicalAnd_3"
  input: "report_uninitialized_variables/LogicalAnd_4"
  device: "/replica:0/task:0/device:CPU:0"
  attr {
    key: "N"
    value {
      i: 5
    }
  }
  attr {
    key: "T"
    value {
      type: DT_BOOL
    }
  }
  attr {
    key: "_output_shapes"
    value {
      list {
        shape {
          dim {
            size: 5
          }
        }
      }
    }
  }
  attr {
    key: "axis"
    value {
      i: 0
    }
  }
}
node {
  name: "report_uninitialized_variables/LogicalNot"
  op: "LogicalNot"
  input: "report_uninitialized_variables/stack"
  device: "/replica:0/task:0/device:CPU:0"
  attr {
    key: "_output_shapes"
    value {
      list {
        shape {
          dim {
            size: 5
          }
        }
      }
    }
  }
}
node {
  name: "report_uninitialized_variables/Const"
  op: "Const"
  device: "/replica:0/task:0/device:CPU:0"
  attr {
    key: "_output_shapes"
    value {
      list {
        shape {
          dim {
            size: 5
          }
        }
      }
    }
  }
  attr {
    key: "dtype"
    value {
      type: DT_STRING
    }
  }
  attr {
    key: "value"
    value {
      tensor {
        dtype: DT_STRING
        tensor_shape {
          dim {
            size: 5
          }
        }
        string_val: "global_step"
        string_val: "dense/kernel"
        string_val: "dense/bias"
        string_val: "dense_1/kernel"
        string_val: "dense_1/bias"
      }
    }
  }
}
node {
  name: "report_uninitialized_variables/boolean_mask/Shape"
  op: "Const"
  device: "/replica:0/task:0/device:CPU:0"
  attr {
    key: "_output_shapes"
    value {
      list {
        shape {
          dim {
            size: 1
          }
        }
      }
    }
  }
  attr {
    key: "dtype"
    value {
      type: DT_INT32
    }
  }
  attr {
    key: "value"
    value {
      tensor {
        dtype: DT_INT32
        tensor_shape {
          dim {
            size: 1
          }
        }
        int_val: 5
      }
    }
  }
}
node {
  name: "report_uninitialized_variables/boolean_mask/strided_slice/stack"
  op: "Const"
  device: "/replica:0/task:0/device:CPU:0"
  attr {
    key: "_output_shapes"
    value {
      list {
        shape {
          dim {
            size: 1
          }
        }
      }
    }
  }
  attr {
    key: "dtype"
    value {
      type: DT_INT32
    }
  }
  attr {
    key: "value"
    value {
      tensor {
        dtype: DT_INT32
        tensor_shape {
          dim {
            size: 1
          }
        }
        int_val: 0
      }
    }
  }
}
node {
  name: "report_uninitialized_variables/boolean_mask/strided_slice/stack_1"
  op: "Const"
  device: "/replica:0/task:0/device:CPU:0"
  attr {
    key: "_output_shapes"
    value {
      list {
        shape {
          dim {
            size: 1
          }
        }
      }
    }
  }
  attr {
    key: "dtype"
    value {
      type: DT_INT32
    }
  }
  attr {
    key: "value"
    value {
      tensor {
        dtype: DT_INT32
        tensor_shape {
          dim {
            size: 1
          }
        }
        int_val: 1
      }
    }
  }
}
node {
  name: "report_uninitialized_variables/boolean_mask/strided_slice/stack_2"
  op: "Const"
  device: "/replica:0/task:0/device:CPU:0"
  attr {
    key: "_output_shapes"
    value {
      list {
        shape {
          dim {
            size: 1
          }
        }
      }
    }
  }
  attr {
    key: "dtype"
    value {
      type: DT_INT32
    }
  }
  attr {
    key: "value"
    value {
      tensor {
        dtype: DT_INT32
        tensor_shape {
          dim {
            size: 1
          }
        }
        int_val: 1
      }
    }
  }
}
node {
  name: "report_uninitialized_variables/boolean_mask/strided_slice"
  op: "StridedSlice"
  input: "report_uninitialized_variables/boolean_mask/Shape"
  input: "report_uninitialized_variables/boolean_mask/strided_slice/stack"
  input: "report_uninitialized_variables/boolean_mask/strided_slice/stack_1"
  input: "report_uninitialized_variables/boolean_mask/strided_slice/stack_2"
  device: "/replica:0/task:0/device:CPU:0"
  attr {
    key: "Index"
    value {
      type: DT_INT32
    }
  }
  attr {
    key: "T"
    value {
      type: DT_INT32
    }
  }
  attr {
    key: "_output_shapes"
    value {
      list {
        shape {
          dim {
            size: 1
          }
        }
      }
    }
  }
  attr {
    key: "begin_mask"
    value {
      i: 0
    }
  }
  attr {
    key: "ellipsis_mask"
    value {
      i: 0
    }
  }
  attr {
    key: "end_mask"
    value {
      i: 0
    }
  }
  attr {
    key: "new_axis_mask"
    value {
      i: 0
    }
  }
  attr {
    key: "shrink_axis_mask"
    value {
      i: 0
    }
  }
}
node {
  name: "report_uninitialized_variables/boolean_mask/Prod/reduction_indices"
  op: "Const"
  device: "/replica:0/task:0/device:CPU:0"
  attr {
    key: "_output_shapes"
    value {
      list {
        shape {
          dim {
            size: 1
          }
        }
      }
    }
  }
  attr {
    key: "dtype"
    value {
      type: DT_INT32
    }
  }
  attr {
    key: "value"
    value {
      tensor {
        dtype: DT_INT32
        tensor_shape {
          dim {
            size: 1
          }
        }
        int_val: 0
      }
    }
  }
}
node {
  name: "report_uninitialized_variables/boolean_mask/Prod"
  op: "Prod"
  input: "report_uninitialized_variables/boolean_mask/strided_slice"
  input: "report_uninitialized_variables/boolean_mask/Prod/reduction_indices"
  device: "/replica:0/task:0/device:CPU:0"
  attr {
    key: "T"
    value {
      type: DT_INT32
    }
  }
  attr {
    key: "Tidx"
    value {
      type: DT_INT32
    }
  }
  attr {
    key: "_output_shapes"
    value {
      list {
        shape {
…
        tensor_shape {
          dim {
            size: 1
          }
        }
        int_val: 5
      }
    }
  }
}
node {
  name: "report_uninitialized_variables_1/boolean_mask/strided_slice_2/stack"
  op: "Const"
  device: "/device:CPU:0"
  attr {
    key: "_output_shapes"
    value {
      list {
        shape {
          dim {
            size: 1
          }
        }
      }
    }
  }
  attr {
    key: "dtype"
    value {
      type: DT_INT32
    }
  }
  attr {
    key: "value"
    value {
      tensor {
        dtype: DT_INT32
        tensor_shape {
          dim {
            size: 1
          }
        }
        int_val: 1
      }
    }
  }
}
node {
  name: "report_uninitialized_variables_1/boolean_mask/strided_slice_2/stack_1"
  op: "Const"
  device: "/device:CPU:0"
  attr {
    key: "_output_shapes"
    value {
      list {
        shape {
          dim {
            size: 1
          }
        }
      }
    }
  }
  attr {
    key: "dtype"
    value {
      type: DT_INT32
    }
  }
  attr {
    key: "value"
    value {
      tensor {
        dtype: DT_INT32
        tensor_shape {
          dim {
            size: 1
          }
        }
        int_val: 0
      }
    }
  }
}
node {
  name: "report_uninitialized_variables_1/boolean_mask/strided_slice_2/stack_2"
  op: "Const"
  device: "/device:CPU:0"
  attr {
    key: "_output_shapes"
    value {
      list {
        shape {
          dim {
            size: 1
          }
        }
      }
    }
  }
  attr {
    key: "dtype"
    value {
      type: DT_INT32
    }
  }
  attr {
    key: "value"
    value {
      tensor {
        dtype: DT_INT32
        tensor_shape {
          dim {
            size: 1
          }
        }
        int_val: 1
      }
    }
  }
}
node {
  name: "report_uninitialized_variables_1/boolean_mask/strided_slice_2"
  op: "StridedSlice"
  input: "report_uninitialized_variables_1/boolean_mask/Shape_2"
  input: "report_uninitialized_variables_1/boolean_mask/strided_slice_2/stack"
  input: "report_uninitialized_variables_1/boolean_mask/strided_slice_2/stack_1"
  input: "report_uninitialized_variables_1/boolean_mask/strided_slice_2/stack_2"
  device: "/device:CPU:0"
  attr {
    key: "Index"
    value {
      type: DT_INT32
    }
  }
  attr {
    key: "T"
    value {
      type: DT_INT32
    }
  }
  attr {
    key: "_output_shapes"
    value {
      list {
        shape {
          dim {
          }
        }
      }
    }
  }
  attr {
    key: "begin_mask"
    value {
      i: 0
    }
  }
  attr {
    key: "ellipsis_mask"
    value {
      i: 0
    }
  }
  attr {
    key: "end_mask"
    value {
      i: 1
    }
  }
  attr {
    key: "new_axis_mask"
    value {
      i: 0
    }
  }
  attr {
    key: "shrink_axis_mask"
    value {
      i: 0
    }
  }
}
node {
  name: "report_uninitialized_variables_1/boolean_mask/concat/values_1"
  op: "Pack"
  input: "report_uninitialized_variables_1/boolean_mask/Prod"
  device: "/device:CPU:0"
  attr {
    key: "N"
    value {
      i: 1
    }
  }
  attr {
    key: "T"
    value {
      type: DT_INT32
    }
  }
  attr {
    key: "_output_shapes"
    value {
      list {
        shape {
          dim {
            size: 1
          }
        }
      }
    }
  }
  attr {
    key: "axis"
    value {
      i: 0
    }
  }
}
node {
  name: "report_uninitialized_variables_1/boolean_mask/concat/axis"
  op: "Const"
  device: "/device:CPU:0"
  attr {
    key: "_output_shapes"
    value {
      list {
        shape {
        }
      }
    }
  }
  attr {
    key: "dtype"
    value {
      type: DT_INT32
    }
  }
  attr {
    key: "value"
    value {
      tensor {
        dtype: DT_INT32
        tensor_shape {
        }
        int_val: 0
      }
    }
  }
}
node {
  name: "report_uninitialized_variables_1/boolean_mask/concat"
  op: "ConcatV2"
  input: "report_uninitialized_variables_1/boolean_mask/strided_slice_1"
  input: "report_uninitialized_variables_1/boolean_mask/concat/values_1"
  input: "report_uninitialized_variables_1/boolean_mask/strided_slice_2"
  input: "report_uninitialized_variables_1/boolean_mask/concat/axis"
  device: "/device:CPU:0"
  attr {
    key: "N"
    value {
      i: 3
    }
  }
  attr {
    key: "T"
    value {
      type: DT_INT32
    }
  }
  attr {
    key: "Tidx"
    value {
      type: DT_INT32
    }
  }
  attr {
    key: "_output_shapes"
    value {
      list {
        shape {
          dim {
            size: 1
          }
        }
      }
    }
  }
}
node {
  name: "report_uninitialized_variables_1/boolean_mask/Reshape"
  op: "Reshape"
  input: "report_uninitialized_variables_1/Const"
  input: "report_uninitialized_variables_1/boolean_mask/concat"
  device: "/device:CPU:0"
  attr {
    key: "T"
    value {
      type: DT_STRING
    }
  }
  attr {
    key: "Tshape"
    value {
      type: DT_INT32
    }
  }
  attr {
    key: "_output_shapes"
    value {
      list {
        shape {
          dim {
            size: 5
          }
        }
      }
    }
  }
}
node {
  name: "report_uninitialized_variables_1/boolean_mask/Reshape_1/shape"
  op: "Const"
  device: "/device:CPU:0"
  attr {
    key: "_output_shapes"
    value {
      list {
        shape {
          dim {
            size: 1
          }
        }
      }
    }
  }
  attr {
    key: "dtype"
    value {
      type: DT_INT32
    }
  }
  attr {
    key: "value"
    value {
      tensor {
        dtype: DT_INT32
        tensor_shape {
          dim {
            size: 1
          }
        }
        int_val: -1
      }
    }
  }
}
node {
  name: "report_uninitialized_variables_1/boolean_mask/Reshape_1"
  op: "Reshape"
  input: "report_uninitialized_variables_1/LogicalNot"
  input: "report_uninitialized_variables_1/boolean_mask/Reshape_1/shape"
  device: "/device:CPU:0"
  attr {
    key: "T"
    value {
      type: DT_BOOL
    }
  }
  attr {
    key: "Tshape"
    value {
      type: DT_INT32
    }
  }
  attr {
    key: "_output_shapes"
    value {
      list {
        shape {
          dim {
            size: 5
          }
        }
      }
    }
  }
}
node {
  name: "report_uninitialized_variables_1/boolean_mask/Where"
  op: "Where"
  input: "report_uninitialized_variables_1/boolean_mask/Reshape_1"
  device: "/device:CPU:0"
  attr {
    key: "T"
    value {
      type: DT_BOOL
    }
  }
  attr {
    key: "_output_shapes"
    value {
      list {
        shape {
          dim {
            size: -1
          }
          dim {
            size: 1
          }
        }
      }
    }
  }
}
node {
  name: "report_uninitialized_variables_1/boolean_mask/Squeeze"
  op: "Squeeze"
  input: "report_uninitialized_variables_1/boolean_mask/Where"
  device: "/device:CPU:0"
  attr {
    key: "T"
    value {
      type: DT_INT64
    }
  }
  attr {
    key: "_output_shapes"
    value {
      list {
        shape {
          dim {
            size: -1
          }
        }
      }
    }
  }
  attr {
    key: "squeeze_dims"
    value {
      list {
        i: 1
      }
    }
  }
}
node {
  name: "report_uninitialized_variables_1/boolean_mask/GatherV2/axis"
  op: "Const"
  device: "/device:CPU:0"
  attr {
    key: "_output_shapes"
    value {
      list {
        shape {
        }
      }
    }
  }
  attr {
    key: "dtype"
    value {
      type: DT_INT32
    }
  }
  attr {
    key: "value"
    value {
      tensor {
        dtype: DT_INT32
        tensor_shape {
        }
        int_val: 0
      }
    }
  }
}
node {
  name: "report_uninitialized_variables_1/boolean_mask/GatherV2"
  op: "GatherV2"
  input: "report_uninitialized_variables_1/boolean_mask/Reshape"
  input: "report_uninitialized_variables_1/boolean_mask/Squeeze"
  input: "report_uninitialized_variables_1/boolean_mask/GatherV2/axis"
  device: "/device:CPU:0"
  attr {
    key: "Taxis"
    value {
      type: DT_INT32
    }
  }
  attr {
    key: "Tindices"
    value {
      type: DT_INT64
    }
  }
  attr {
    key: "Tparams"
    value {
      type: DT_STRING
    }
  }
  attr {
    key: "_output_shapes"
    value {
      list {
        shape {
          dim {
            size: -1
          }
        }
      }
    }
  }
  attr {
    key: "batch_dims"
    value {
      i: 0
    }
  }
}
node {
  name: "report_uninitialized_resources/Const"
  op: "Const"
  device: "/device:CPU:0"
  attr {
    key: "_output_shapes"
    value {
      list {
        shape {
          dim {
          }
        }
      }
    }
  }
  attr {
    key: "dtype"
    value {
      type: DT_STRING
    }
  }
  attr {
    key: "value"
    value {
      tensor {
        dtype: DT_STRING
        tensor_shape {
          dim {
          }
        }
      }
    }
  }
}
node {
  name: "concat/axis"
  op: "Const"
  attr {
    key: "_output_shapes"
    value {
      list {
        shape {
        }
      }
    }
  }
  attr {
    key: "dtype"
    value {
      type: DT_INT32
    }
  }
  attr {
    key: "value"
    value {
      tensor {
        dtype: DT_INT32
        tensor_shape {
        }
        int_val: 0
      }
    }
  }
}
node {
  name: "concat"
  op: "ConcatV2"
  input: "report_uninitialized_variables_1/boolean_mask/GatherV2"
  input: "report_uninitialized_resources/Const"
  input: "concat/axis"
  attr {
    key: "N"
    value {
      i: 2
    }
  }
  attr {
    key: "T"
    value {
      type: DT_STRING
    }
  }
  attr {
    key: "Tidx"
    value {
      type: DT_INT32
    }
  }
  attr {
    key: "_output_shapes"
    value {
      list {
        shape {
          dim {
            size: -1
          }
        }
      }
    }
  }
}
node {
  name: "init_2"
  op: "NoOp"
}
node {
  name: "init_all_tables"
  op: "NoOp"
}
node {
  name: "init_3"
  op: "NoOp"
}
node {
  name: "group_deps_8"
  op: "NoOp"
  input: "^init_2"
  input: "^init_3"
  input: "^init_all_tables"
}
node {
  name: "Merge/MergeSummary"
  op: "MergeSummary"
  input: "loss_1"
  attr {
    key: "N"
    value {
      i: 1
    }
  }
  attr {
    key: "_output_shapes"
    value {
      list {
        shape {
        }
      }
    }
  }
}
node {
  name: "save/filename/input"
  op: "Const"
  attr {
    key: "_output_shapes"
    value {
      list {
        shape {
        }
      }
    }
  }
  attr {
    key: "dtype"
    value {
      type: DT_STRING
    }
  }
  attr {
    key: "value"
    value {
      tensor {
        dtype: DT_STRING
        tensor_shape {
        }
        string_val: "model"
      }
    }
  }
}
node {
  name: "save/filename"
  op: "PlaceholderWithDefault"
  input: "save/filename/input"
  attr {
    key: "_output_shapes"
    value {
      list {
        shape {
        }
      }
    }
  }
  attr {
    key: "dtype"
    value {
      type: DT_STRING
    }
  }
  attr {
    key: "shape"
    value {
      shape {
      }
    }
  }
}
node {
  name: "save/Const"
  op: "PlaceholderWithDefault"
  input: "save/filename"
  attr {
    key: "_output_shapes"
    value {
      list {
        shape {
        }
      }
    }
  }
  attr {
    key: "dtype"
    value {
      type: DT_STRING
    }
  }
  attr {
    key: "shape"
    value {
      shape {
      }
    }
  }
}
node {
  name: "save/Read/ReadVariableOp"
  op: "ReadVariableOp"
  input: "dense/bias"
  device: "/replica:0/task:0/device:CPU:0"
  attr {
    key: "_output_shapes"
    value {
      list {
        shape {
          dim {
            size: 16
          }
        }
      }
    }
  }
  attr {
    key: "dtype"
    value {
      type: DT_FLOAT
    }
  }
}
node {
  name: "save/Identity"
  op: "Identity"
  input: "save/Read/ReadVariableOp"
  device: "/replica:0/task:0/device:CPU:0"
  attr {
    key: "T"
    value {
      type: DT_FLOAT
    }
  }
  attr {
    key: "_output_shapes"
    value {
      list {
        shape {
          dim {
            size: 16
          }
        }
      }
    }
  }
}
node {
  name: "save/Identity_1"
  op: "Identity"
  input: "save/Identity"
  device: "/replica:0/task:0/device:CPU:0"
  attr {
    key: "T"
    value {
      type: DT_FLOAT
    }
  }
  attr {
    key: "_output_shapes"
    value {
      list {
        shape {
          dim {
            size: 16
          }
        }
      }
    }
  }
}
node {
  name: "save/Read_1/ReadVariableOp"
  op: "ReadVariableOp"
  input: "dense/kernel"
  device: "/replica:0/task:0/device:CPU:0"
  attr {
    key: "_output_shapes"
    value {
      list {
        shape {
          dim {
            size: 10
          }
          dim {
            size: 16
          }
        }
      }
    }
  }
  attr {
    key: "dtype"
    value {
      type: DT_FLOAT
    }
  }
}
node {
  name: "save/Identity_2"
  op: "Identity"
  input: "save/Read_1/ReadVariableOp"
  device: "/replica:0/task:0/device:CPU:0"
  attr {
    key: "T"
    value {
      type: DT_FLOAT
    }
  }
  attr {
    key: "_output_shapes"
    value {
      list {
        shape {
          dim {
            size: 10
          }
          dim {
            size: 16
          }
        }
      }
    }
  }
}
node {
  name: "save/Identity_3"
  op: "Identity"
  input: "save/Identity_2"
  device: "/replica:0/task:0/device:CPU:0"
  attr {
    key: "T"
    value {
      type: DT_FLOAT
    }
  }
  attr {
    key: "_output_shapes"
    value {
      list {
        shape {
          dim {
            size: 10
          }
          dim {
            size: 16
          }
        }
      }
    }
  }
}
node {
  name: "save/Read_2/ReadVariableOp"
  op: "ReadVariableOp"
  input: "dense_1/bias"
  device: "/replica:0/task:0/device:CPU:0"
  attr {
    key: "_output_shapes"
    value {
      list {
        shape {
          dim {
            size: 1
          }
        }
      }
    }
  }
  attr {
    key: "dtype"
    value {
      type: DT_FLOAT
    }
  }
}
node {
  name: "save/Identity_4"
  op: "Identity"
  input: "save/Read_2/ReadVariableOp"
  device: "/replica:0/task:0/device:CPU:0"
  attr {
    key: "T"
    value {
      type: DT_FLOAT
    }
  }
  attr {
    key: "_output_shapes"
    value {
      list {
        shape {
          dim {
            size: 1
          }
        }
      }
    }
  }
}
node {
  name: "save/Identity_5"
  op: "Identity"
  input: "save/Identity_4"
  device: "/replica:0/task:0/device:CPU:0"
  attr {
    key: "T"
    value {
      type: DT_FLOAT
    }
  }
  attr {
    key: "_output_shapes"
    value {
      list {
        shape {
          dim {
            size: 1
          }
        }
      }
    }
  }
}
node {
  name: "save/Read_3/ReadVariableOp"
  op: "ReadVariableOp"
  input: "dense_1/kernel"
  device: "/replica:0/task:0/device:CPU:0"
  attr {
    key: "_output_shapes"
    value {
      list {
        shape {
          dim {
            size: 16
          }
          dim {
            size: 1
          }
        }
      }
    }
  }
  attr {
    key: "dtype"
    value {
      type: DT_FLOAT
    }
  }
}
node {
  name: "save/Identity_6"
  op: "Identity"
  input: "save/Read_3/ReadVariableOp"
  device: "/replica:0/task:0/device:CPU:0"
  attr {
    key: "T"
    value {
      type: DT_FLOAT
    }
  }
  attr {
    key: "_output_shapes"
    value {
      list {
        shape {
          dim {
            size: 16
          }
          dim {
            size: 1
          }
        }
      }
    }
  }
}
node {
  name: "save/Identity_7"
  op: "Identity"
  input: "save/Identity_6"
  device: "/replica:0/task:0/device:CPU:0"
  attr {
    key: "T"
    value {
      type: DT_FLOAT
    }
  }
  attr {
    key: "_output_shapes"
    value {
      list {
        shape {
          dim {
            size: 16
          }
          dim {
            size: 1
          }
        }
      }
    }
  }
}
node {
  name: "save/Read_4/ReadVariableOp"
  op: "ReadVariableOp"
  input: "global_step"
  device: "/replica:0/task:0/device:CPU:0"
  attr {
    key: "_output_shapes"
    value {
      list {
        shape {
        }
      }
    }
  }
  attr {
    key: "dtype"
    value {
      type: DT_INT64
    }
  }
}
node {
  name: "save/Identity_8"
  op: "Identity"
  input: "save/Read_4/ReadVariableOp"
  device: "/replica:0/task:0/device:CPU:0"
  attr {
    key: "T"
    value {
      type: DT_INT64
    }
  }
  attr {
    key: "_output_shapes"
    value {
      list {
        shape {
        }
      }
    }
  }
}
node {
  name: "save/Identity_9"
  op: "Identity"
  input: "save/Identity_8"
  device: "/replica:0/task:0/device:CPU:0"
  attr {
    key: "T"
    value {
      type: DT_INT64
    }
  }
  attr {
    key: "_output_shapes"
    value {
      list {
        shape {
        }
      }
    }
  }
}
node {
  name: "save/StringJoin/inputs_1"
  op: "Const"
  attr {
    key: "_output_shapes"
    value {
      list {
        shape {
        }
      }
    }
  }
  attr {
    key: "dtype"
    value {
      type: DT_STRING
    }
  }
  attr {
    key: "value"
    value {
      tensor {
        dtype: DT_STRING
        tensor_shape {
        }
        string_val: "_temp_7353a15c56e34d37b40006ca8cfc9a95/part"
      }
    }
  }
}
node {
  name: "save/StringJoin"
  op: "StringJoin"
  input: "save/Const"
  input: "save/StringJoin/inputs_1"
  attr {
    key: "N"
    value {
      i: 2
    }
  }
  attr {
    key: "_output_shapes"
    value {
      list {
        shape {
        }
      }
    }
  }
  attr {
    key: "separator"
    value {
      s: ""
    }
  }
}
node {
  name: "save/num_shards"
  op: "Const"
  attr {
    key: "_output_shapes"
    value {
      list {
        shape {
        }
      }
    }
  }
  attr {
    key: "dtype"
    value {
      type: DT_INT32
    }
  }
  attr {
    key: "value"
    value {
      tensor {
        dtype: DT_INT32
        tensor_shape {
        }
        int_val: 1
      }
    }
  }
}
node {
  name: "save/ShardedFilename/shard"
  op: "Const"
  device: "/replica:0/task:0/device:CPU:0"
  attr {
    key: "_output_shapes"
    value {
      list {
        shape {
        }
      }
    }
  }
  attr {
    key: "dtype"
    value {
      type: DT_INT32
    }
  }
  attr {
    key: "value"
    value {
      tensor {
        dtype: DT_INT32
        tensor_shape {
        }
        int_val: 0
      }
    }
  }
}
node {
  name: "save/ShardedFilename"
  op: "ShardedFilename"
  input: "save/StringJoin"
  input: "save/ShardedFilename/shard"
  input: "save/num_shards"
  device: "/replica:0/task:0/device:CPU:0"
  attr {
    key: "_output_shapes"
    value {
      list {
        shape {
        }
      }
    }
  }
}
node {
  name: "save/Read_5/ReadVariableOp"
  op: "ReadVariableOp"
  input: "dense/bias"
  device: "/replica:0/task:0/device:CPU:0"
  attr {
    key: "_output_shapes"
    value {
      list {
        shape {
          dim {
            size: 16
          }
        }
      }
    }
  }
  attr {
    key: "dtype"
    value {
      type: DT_FLOAT
    }
  }
}
node {
  name: "save/Identity_10"
  op: "Identity"
  input: "save/Read_5/ReadVariableOp"
  device: "/replica:0/task:0/device:CPU:0"
  attr {
    key: "T"
    value {
      type: DT_FLOAT
    }
  }
  attr {
    key: "_output_shapes"
    value {
      list {
        shape {
          dim {
            size: 16
          }
        }
      }
    }
  }
}
node {
  name: "save/Identity_11"
  op: "Identity"
  input: "save/Identity_10"
  device: "/replica:0/task:0/device:CPU:0"
  attr {
    key: "T"
    value {
      type: DT_FLOAT
    }
  }
  attr {
    key: "_output_shapes"
    value {
      list {
        shape {
          dim {
            size: 16
          }
        }
      }
    }
  }
}
node {
  name: "save/Read_6/ReadVariableOp"
  op: "ReadVariableOp"
  input: "dense/kernel"
  device: "/replica:0/task:0/device:CPU:0"
  attr {
    key: "_output_shapes"
    value {
      list {
        shape {
          dim {
            size: 10
          }
          dim {
            size: 16
          }
        }
      }
    }
  }
  attr {
    key: "dtype"
    value {
      type: DT_FLOAT
    }
  }
}
node {
  name: "save/Identity_12"
  op: "Identity"
  input: "save/Read_6/ReadVariableOp"
  device: "/replica:0/task:0/device:CPU:0"
  attr {
    key: "T"
    value {
      type: DT_FLOAT
    }
  }
  attr {
    key: "_output_shapes"
    value {
      list {
        shape {
          dim {
            size: 10
          }
          dim {
            size: 16
          }
        }
      }
    }
  }
}
node {
  name: "save/Identity_13"
  op: "Identity"
  input: "save/Identity_12"
  device: "/replica:0/task:0/device:CPU:0"
  attr {
    key: "T"
    value {
      type: DT_FLOAT
    }
  }
  attr {
    key: "_output_shapes"
    value {
      list {
        shape {
          dim {
            size: 10
          }
          dim {
            size: 16
          }
        }
      }
    }
  }
}
node {
  name: "save/Read_7/ReadVariableOp"
  op: "ReadVariableOp"
  input: "dense_1/bias"
  device: "/replica:0/task:0/device:CPU:0"
  attr {
    key: "_output_shapes"
    value {
      list {
        shape {
          dim {
            size: 1
          }
        }
      }
    }
  }
  attr {
    key: "dtype"
    value {
      type: DT_FLOAT
    }
  }
}
node {
  name: "save/Identity_14"
  op: "Identity"
  input: "save/Read_7/ReadVariableOp"
  device: "/replica:0/task:0/device:CPU:0"
  attr {
    key: "T"
    value {
      type: DT_FLOAT
    }
  }
  attr {
    key: "_output_shapes"
    value {
      list {
        shape {
          dim {
            size: 1
          }
        }
      }
    }
  }
}
node {
  name: "save/Identity_15"
  op: "Identity"
  input: "save/Identity_14"
  device: "/replica:0/task:0/device:CPU:0"
  attr {
    key: "T"
    value {
      type: DT_FLOAT
    }
  }
  attr {
    key: "_output_shapes"
    value {
      list {
        shape {
          dim {
            size: 1
          }
        }
      }
    }
  }
}
node {
  name: "save/Read_8/ReadVariableOp"
  op: "ReadVariableOp"
  input: "dense_1/kernel"
  device: "/replica:0/task:0/device:CPU:0"
  attr {
    key: "_output_shapes"
    value {
      list {
        shape {
          dim {
            size: 16
          }
          dim {
            size: 1
          }
        }
      }
    }
  }
  attr {
    key: "dtype"
    value {
      type: DT_FLOAT
    }
  }
}
node {
  name: "save/Identity_16"
  op: "Identity"
  input: "save/Read_8/ReadVariableOp"
  device: "/replica:0/task:0/device:CPU:0"
  attr {
    key: "T"
    value {
      type: DT_FLOAT
    }
  }
  attr {
    key: "_output_shapes"
    value {
      list {
        shape {
          dim {
            size: 16
          }
          dim {
            size: 1
          }
        }
      }
    }
  }
}
node {
  name: "save/Identity_17"
  op: "Identity"
  input: "save/Identity_16"
  device: "/replica:0/task:0/device:CPU:0"
  attr {
    key: "T"
    value {
      type: DT_FLOAT
    }
  }
  attr {
    key: "_output_shapes"
    value {
      list {
        shape {
          dim {
            size: 16
          }
          dim {
            size: 1
          }
        }
      }
    }
  }
}
node {
  name: "save/Read_9/ReadVariableOp"
  op: "ReadVariableOp"
  input: "global_step"
  device: "/replica:0/task:0/device:CPU:0"
  attr {
    key: "_output_shapes"
    value {
      list {
        shape {
        }
      }
    }
  }
  attr {
    key: "dtype"
    value {
      type: DT_INT64
    }
  }
}
node {
  name: "save/Identity_18"
  op: "Identity"
  input: "save/Read_9/ReadVariableOp"
  device: "/replica:0/task:0/device:CPU:0"
  attr {
    key: "T"
    value {
      type: DT_INT64
    }
  }
  attr {
    key: "_output_shapes"
    value {
      list {
        shape {
        }
      }
    }
  }
}
node {
  name: "save/Identity_19"
  op: "Identity"
  input: "save/Identity_18"
  device: "/replica:0/task:0/device:CPU:0"
  attr {
    key: "T"
    value {
      type: DT_INT64
    }
  }
  attr {
    key: "_output_shapes"
    value {
      list {
        shape {
        }
      }
    }
  }
}
node {
  name: "save/SaveV2/tensor_names"
  op: "Const"
  device: "/replica:0/task:0/device:CPU:0"
  attr {
    key: "_output_shapes"
    value {
      list {
        shape {
          dim {
            size: 5
          }
        }
      }
    }
  }
  attr {
    key: "dtype"
    value {
      type: DT_STRING
    }
  }
  attr {
    key: "value"
    value {
      tensor {
        dtype: DT_STRING
        tensor_shape {
          dim {
            size: 5
          }
        }
        string_val: "dense/bias"
        string_val: "dense/kernel"
        string_val: "dense_1/bias"
        string_val: "dense_1/kernel"
        string_val: "global_step"
      }
    }
  }
}
node {
  name: "save/SaveV2/shape_and_slices"
  op: "Const"
  device: "/replica:0/task:0/device:CPU:0"
  attr {
    key: "_output_shapes"
    value {
      list {
        shape {
          dim {
            size: 5
          }
        }
      }
    }
  }
  attr {
    key: "dtype"
    value {
      type: DT_STRING
    }
  }
  attr {
    key: "value"
    value {
      tensor {
        dtype: DT_STRING
        tensor_shape {
          dim {
            size: 5
          }
        }
        string_val: ""
        string_val: ""
        string_val: ""
        string_val: ""
        string_val: ""
      }
    }
  }
}
node {
  name: "save/SaveV2"
  op: "SaveV2"
  input: "save/ShardedFilename"
  input: "save/SaveV2/tensor_names"
  input: "save/SaveV2/shape_and_slices"
  input: "save/Identity_11"
  input: "save/Identity_13"
  input: "save/Identity_15"
  input: "save/Identity_17"
  input: "save/Identity_19"
  device: "/replica:0/task:0/device:CPU:0"
  attr {
    key: "dtypes"
    value {
      list {
        type: DT_FLOAT
        type: DT_FLOAT
        type: DT_FLOAT
        type: DT_FLOAT
        type: DT_INT64
      }
    }
  }
}
node {
  name: "save/control_dependency"
  op: "Identity"
  input: "save/ShardedFilename"
  input: "^save/SaveV2"
  device: "/replica:0/task:0/device:CPU:0"
  attr {
    key: "T"
    value {
      type: DT_STRING
    }
  }
  attr {
    key: "_class"
    value {
      list {
        s: "loc:@save/ShardedFilename"
      }
    }
  }
  attr {
    key: "_output_shapes"
    value {
      list {
        shape {
        }
      }
    }
  }
}
node {
  name: "save/MergeV2Checkpoints/checkpoint_prefixes"
  op: "Pack"
  input: "save/ShardedFilename"
  input: "^save/control_dependency"
  device: "/replica:0/task:0/device:CPU:0"
  attr {
    key: "N"
    value {
      i: 1
    }
  }
  attr {
    key: "T"
    value {
      type: DT_STRING
    }
  }
  attr {
    key: "_output_shapes"
    value {
      list {
        shape {
          dim {
            size: 1
          }
        }
      }
    }
  }
  attr {
    key: "axis"
    value {
      i: 0
    }
  }
}
node {
  name: "save/MergeV2Checkpoints"
  op: "MergeV2Checkpoints"
  input: "save/MergeV2Checkpoints/checkpoint_prefixes"
  input: "save/Const"
  device: "/replica:0/task:0/device:CPU:0"
  attr {
    key: "delete_old_dirs"
    value {
      b: true
    }
  }
}
node {
  name: "save/Identity_20"
  op: "Identity"
  input: "save/Const"
  input: "^save/MergeV2Checkpoints"
  input: "^save/control_dependency"
  device: "/replica:0/task:0/device:CPU:0"
  attr {
    key: "T"
    value {
      type: DT_STRING
    }
  }
  attr {
    key: "_output_shapes"
    value {
      list {
        shape {
        }
      }
    }
  }
}
node {
  name: "save/RestoreV2/tensor_names"
  op: "Const"
  device: "/replica:0/task:0/device:CPU:0"
  attr {
    key: "_output_shapes"
    value {
      list {
        shape {
          dim {
            size: 5
          }
        }
      }
    }
  }
  attr {
    key: "dtype"
    value {
      type: DT_STRING
    }
  }
  attr {
    key: "value"
    value {
      tensor {
        dtype: DT_STRING
        tensor_shape {
          dim {
            size: 5
          }
        }
        string_val: "dense/bias"
        string_val: "dense/kernel"
        string_val: "dense_1/bias"
        string_val: "dense_1/kernel"
        string_val: "global_step"
      }
    }
  }
}
node {
  name: "save/RestoreV2/shape_and_slices"
  op: "Const"
  device: "/replica:0/task:0/device:CPU:0"
  attr {
    key: "_output_shapes"
    value {
      list {
        shape {
          dim {
            size: 5
          }
        }
      }
    }
  }
  attr {
    key: "dtype"
    value {
      type: DT_STRING
    }
  }
  attr {
    key: "value"
    value {
      tensor {
        dtype: DT_STRING
        tensor_shape {
          dim {
            size: 5
          }
        }
        string_val: ""
        string_val: ""
        string_val: ""
        string_val: ""
        string_val: ""
      }
    }
  }
}
node {
  name: "save/RestoreV2"
  op: "RestoreV2"
  input: "save/Const"
  input: "save/RestoreV2/tensor_names"
  input: "save/RestoreV2/shape_and_slices"
  device: "/replica:0/task:0/device:CPU:0"
  attr {
    key: "_output_shapes"
    value {
      list {
        shape {
          unknown_rank: true
        }
        shape {
          unknown_rank: true
        }
        shape {
          unknown_rank: true
        }
        shape {
          unknown_rank: true
        }
        shape {
          unknown_rank: true
        }
      }
    }
  }
  attr {
    key: "dtypes"
    value {
      list {
        type: DT_FLOAT
        type: DT_FLOAT
        type: DT_FLOAT
        type: DT_FLOAT
        type: DT_INT64
      }
    }
  }
}
node {
  name: "save/Identity_21"
  op: "Identity"
  input: "save/RestoreV2"
  device: "/replica:0/task:0/device:CPU:0"
  attr {
    key: "T"
    value {
      type: DT_FLOAT
    }
  }
  attr {
    key: "_output_shapes"
    value {
      list {
        shape {
          unknown_rank: true
        }
      }
    }
  }
}
node {
  name: "save/AssignVariableOp"
  op: "AssignVariableOp"
  input: "dense/bias"
  input: "save/Identity_21"
  device: "/replica:0/task:0/device:CPU:0"
  attr {
    key: "dtype"
    value {
      type: DT_FLOAT
    }
  }
}
node {
  name: "save/ReadVariableOp"
  op: "ReadVariableOp"
  input: "dense/bias"
  input: "^save/AssignVariableOp"
  device: "/replica:0/task:0/device:CPU:0"
  attr {
    key: "_output_shapes"
    value {
      list {
        shape {
          dim {
            size: 16
          }
        }
      }
    }
  }
  attr {
    key: "dtype"
    value {
      type: DT_FLOAT
    }
  }
}
node {
  name: "save/group_deps"
  op: "NoOp"
  input: "^save/AssignVariableOp"
  device: "/replica:0/task:0/device:CPU:0"
}
node {
  name: "save/Identity_22"
  op: "Identity"
  input: "save/RestoreV2:1"
  device: "/replica:0/task:0/device:CPU:0"
  attr {
    key: "T"
    value {
      type: DT_FLOAT
    }
  }
  attr {
    key: "_output_shapes"
    value {
      list {
        shape {
          unknown_rank: true
        }
      }
    }
  }
}
node {
  name: "save/AssignVariableOp_1"
  op: "AssignVariableOp"
  input: "dense/kernel"
  input: "save/Identity_22"
  device: "/replica:0/task:0/device:CPU:0"
  attr {
    key: "dtype"
    value {
      type: DT_FLOAT
    }
  }
}
node {
  name: "save/ReadVariableOp_1"
  op: "ReadVariableOp"
  input: "dense/kernel"
  input: "^save/AssignVariableOp_1"
  device: "/replica:0/task:0/device:CPU:0"
  attr {
    key: "_output_shapes"
    value {
      list {
        shape {
          dim {
            size: 10
          }
          dim {
            size: 16
          }
        }
      }
    }
  }
  attr {
    key: "dtype"
    value {
      type: DT_FLOAT
    }
  }
}
node {
  name: "save/group_deps_1"
  op: "NoOp"
  input: "^save/AssignVariableOp_1"
  device: "/replica:0/task:0/device:CPU:0"
}
node {
  name: "save/Identity_23"
  op: "Identity"
  input: "save/RestoreV2:2"
  device: "/replica:0/task:0/device:CPU:0"
  attr {
    key: "T"
    value {
      type: DT_FLOAT
    }
  }
  attr {
    key: "_output_shapes"
    value {
      list {
        shape {
          unknown_rank: true
        }
      }
    }
  }
}
node {
  name: "save/AssignVariableOp_2"
  op: "AssignVariableOp"
  input: "dense_1/bias"
  input: "save/Identity_23"
  device: "/replica:0/task:0/device:CPU:0"
  attr {
    key: "dtype"
    value {
      type: DT_FLOAT
    }
  }
}
node {
  name: "save/ReadVariableOp_2"
  op: "ReadVariableOp"
  input: "dense_1/bias"
  input: "^save/AssignVariableOp_2"
  device: "/replica:0/task:0/device:CPU:0"
  attr {
    key: "_output_shapes"
    value {
      list {
        shape {
          dim {
            size: 1
          }
        }
      }
    }
  }
  attr {
    key: "dtype"
    value {
      type: DT_FLOAT
    }
  }
}
node {
  name: "save/group_deps_2"
  op: "NoOp"
  input: "^save/AssignVariableOp_2"
  device: "/replica:0/task:0/device:CPU:0"
}
node {
  name: "save/Identity_24"
  op: "Identity"
  input: "save/RestoreV2:3"
  device: "/replica:0/task:0/device:CPU:0"
  attr {
    key: "T"
    value {
      type: DT_FLOAT
    }
  }
  attr {
    key: "_output_shapes"
    value {
      list {
        shape {
          unknown_rank: true
        }
      }
    }
  }
}
node {
  name: "save/AssignVariableOp_3"
  op: "AssignVariableOp"
  input: "dense_1/kernel"
  input: "save/Identity_24"
  device: "/replica:0/task:0/device:CPU:0"
  attr {
    key: "dtype"
    value {
      type: DT_FLOAT
    }
  }
}
node {
  name: "save/ReadVariableOp_3"
  op: "ReadVariableOp"
  input: "dense_1/kernel"
  input: "^save/AssignVariableOp_3"
  device: "/replica:0/task:0/device:CPU:0"
  attr {
    key: "_output_shapes"
    value {
      list {
        shape {
          dim {
            size: 16
          }
          dim {
            size: 1
          }
        }
      }
    }
  }
  attr {
    key: "dtype"
    value {
      type: DT_FLOAT
    }
  }
}
node {
  name: "save/group_deps_3"
  op: "NoOp"
  input: "^save/AssignVariableOp_3"
  device: "/replica:0/task:0/device:CPU:0"
}
node {
  name: "save/Identity_25"
  op: "Identity"
  input: "save/RestoreV2:4"
  device: "/replica:0/task:0/device:CPU:0"
  attr {
    key: "T"
    value {
      type: DT_INT64
    }
  }
  attr {
    key: "_output_shapes"
    value {
      list {
        shape {
          unknown_rank: true
        }
      }
    }
  }
}
node {
  name: "save/AssignVariableOp_4"
  op: "AssignVariableOp"
  input: "global_step"
  input: "save/Identity_25"
  device: "/replica:0/task:0/device:CPU:0"
  attr {
    key: "dtype"
    value {
      type: DT_INT64
    }
  }
}
node {
  name: "save/ReadVariableOp_4"
  op: "ReadVariableOp"
  input: "global_step"
  input: "^save/AssignVariableOp_4"
  device: "/replica:0/task:0/device:CPU:0"
  attr {
    key: "_output_shapes"
    value {
      list {
        shape {
        }
      }
    }
  }
  attr {
    key: "dtype"
    value {
      type: DT_INT64
    }
  }
}
node {
  name: "save/group_deps_4"
  op: "NoOp"
  input: "^save/AssignVariableOp_4"
  device: "/replica:0/task:0/device:CPU:0"
}
node {
  name: "save/restore_shard"
  op: "NoOp"
  input: "^save/group_deps"
  input: "^save/group_deps_1"
  input: "^save/group_deps_2"
  input: "^save/group_deps_3"
  input: "^save/group_deps_4"
  device: "/replica:0/task:0/device:CPU:0"
}
node {
  name: "save/restore_all"
  op: "NoOp"
  input: "^save/restore_shard"
  device: "/replica:0/task:0/device:CPU:0"
}
library {
  function {
    signature {
      name: "__inference__init_func_98"
      input_arg {
        name: "identity_multideviceiteratortostringhandle"
        type: DT_STRING
      }
      output_arg {
        name: "identity"
        type: DT_STRING
      }
    }
    node_def {
      name: "Identity"
      op: "Identity"
      input: "identity_multideviceiteratortostringhandle"
      device: "/replica:0/task:0/device:CPU:0"
      attr {
        key: "T"
        value {
          type: DT_STRING
        }
      }
      attr {
        key: "_output_shapes"
        value {
          list {
            shape {
            }
          }
        }
      }
    }
    ret {
      key: "identity"
      value: "Identity:output:0"
    }
    attr {
      key: "_input_shapes"
      value {
        list {
          shape {
          }
        }
      }
    }
    arg_attr {
      value {
      }
    }
  }
  function {
    signature {
      name: "__inference__remote_init_func_104"
      input_arg {
        name: "remotecall_const"
        type: DT_STRING
      }
      input_arg {
        name: "remotecall_multideviceiteratortostringhandle"
        type: DT_STRING
      }
      output_arg {
        name: "identity"
        type: DT_STRING
      }
      is_stateful: true
      control_output: "RemoteCall"
    }
    node_def {
      name: "RemoteCall"
      op: "RemoteCall"
      input: "remotecall_const"
      input: "remotecall_multideviceiteratortostringhandle"
      device: "/replica:0/task:0/device:CPU:0"
      attr {
        key: "Tin"
        value {
          list {
            type: DT_STRING
          }
        }
      }
      attr {
        key: "Tout"
        value {
          list {
            type: DT_STRING
          }
        }
      }
      attr {
        key: "_output_shapes"
        value {
          list {
            shape {
              unknown_rank: true
            }
          }
        }
      }
      attr {
        key: "f"
        value {
          func {
            name: "__inference__init_func_98"
          }
        }
      }
    }
    node_def {
      name: "Identity"
      op: "Identity"
      input: "RemoteCall:output:0"
      input: "^RemoteCall"
      device: "/replica:0/task:0/device:CPU:0"
      attr {
        key: "T"
        value {
          type: DT_STRING
        }
      }
      attr {
        key: "_output_shapes"
        value {
          list {
            shape {
              unknown_rank: true
            }
          }
        }
      }
    }
    ret {
      key: "identity"
      value: "Identity:output:0"
    }
    attr {
      key: "_input_shapes"
      value {
        list {
          shape {
          }
          shape {
          }
        }
      }
    }
    control_ret {
      key: "RemoteCall"
      value: "RemoteCall"
    }
    arg_attr {
      value {
      }
    }
    arg_attr {
      key: 1
      value {
      }
    }
  }
  function {
    signature {
      name: "__inference__remote_finalize_func_134"
      input_arg {
        name: "string_handle"
        type: DT_STRING
      }
      input_arg {
        name: "remotecall_const"
        type: DT_STRING
      }
      output_arg {
        name: "identity"
        type: DT_INT64
      }
      is_stateful: true
      control_output: "RemoteCall"
    }
    node_def {
      name: "RemoteCall"
      op: "RemoteCall"
      input: "remotecall_const"
      input: "string_handle"
      device: "/replica:0/task:0/device:CPU:0"
      attr {
        key: "Tin"
        value {
          list {
            type: DT_STRING
          }
        }
      }
      attr {
        key: "Tout"
        value {
          list {
            type: DT_INT64
          }
        }
      }
      attr {
        key: "_output_shapes"
        value {
          list {
            shape {
              unknown_rank: true
            }
          }
        }
      }
      attr {
        key: "f"
        value {
          func {
            name: "__inference__finalize_func_128"
          }
        }
      }
    }
    node_def {
      name: "Identity"
      op: "Identity"
      input: "RemoteCall:output:0"
      input: "^RemoteCall"
      device: "/replica:0/task:0/device:CPU:0"
      attr {
        key: "T"
        value {
          type: DT_INT64
        }
      }
      attr {
        key: "_output_shapes"
        value {
          list {
            shape {
              unknown_rank: true
            }
          }
        }
      }
    }
    ret {
      key: "identity"
      value: "Identity:output:0"
    }
    attr {
      key: "_input_shapes"
      value {
        list {
          shape {
          }
          shape {
          }
        }
      }
    }
    control_ret {
      key: "RemoteCall"
      value: "RemoteCall"
    }
    arg_attr {
      value {
        attr {
          key: "_user_specified_name"
          value {
            s: "string_handle"
          }
        }
      }
    }
    arg_attr {
      key: 1
      value {
      }
    }
  }
  function {
    signature {
      name: "__inference__next_func_114"
      input_arg {
        name: "string_handle"
        type: DT_STRING
      }
      input_arg {
        name: "multideviceiteratorgetnextfromshard_multideviceiteratorinit"
        type: DT_INT64
      }
      output_arg {
        name: "identity"
        type: DT_FLOAT
      }
      output_arg {
        name: "identity_1"
        type: DT_INT32
      }
      is_stateful: true
      control_output: "MultiDeviceIteratorGetNextFromShard"
      control_output: "MultiDeviceIteratorFromStringHandle"
    }
    node_def {
      name: "MultiDeviceIteratorFromStringHandle"
      op: "MultiDeviceIteratorFromStringHandle"
      input: "string_handle"
      device: "/replica:0/task:0/device:CPU:0"
      attr {
        key: "_output_shapes"
        value {
          list {
            shape {
            }
          }
        }
      }
      attr {
        key: "output_shapes"
        value {
          list {
            shape {
              dim {
                size: -1
              }
              dim {
                size: 10
              }
            }
            shape {
              dim {
                size: -1
              }
              dim {
                size: 1
              }
            }
          }
        }
      }
      attr {
        key: "output_types"
        value {
          list {
            type: DT_FLOAT
            type: DT_INT32
          }
        }
      }
    }
    node_def {
      name: "MultiDeviceIteratorGetNextFromShard/shard_num"
      op: "Const"
      device: "/replica:0/task:0/device:CPU:0"
      attr {
        key: "_output_shapes"
        value {
          list {
            shape {
            }
          }
        }
      }
      attr {
        key: "dtype"
        value {
          type: DT_INT32
        }
      }
      attr {
        key: "value"
        value {
          tensor {
            dtype: DT_INT32
            tensor_shape {
            }
            int_val: 0
          }
        }
      }
    }
    node_def {
      name: "MultiDeviceIteratorGetNextFromShard"
      op: "MultiDeviceIteratorGetNextFromShard"
      input: "MultiDeviceIteratorFromStringHandle:multi_device_iterator:0"
      input: "MultiDeviceIteratorGetNextFromShard/shard_num:output:0"
      input: "multideviceiteratorgetnextfromshard_multideviceiteratorinit"
      device: "/replica:0/task:0/device:CPU:0"
      attr {
        key: "_output_shapes"
        value {
          list {
            shape {
              dim {
                size: -1
              }
              dim {
                size: 10
              }
            }
            shape {
              dim {
                size: -1
              }
              dim {
                size: 1
              }
            }
          }
        }
      }
      attr {
        key: "output_shapes"
        value {
          list {
            shape {
              dim {
                size: -1
              }
              dim {
                size: 10
              }
            }
            shape {
              dim {
                size: -1
              }
              dim {
                size: 1
              }
            }
          }
        }
      }
      attr {
        key: "output_types"
        value {
          list {
            type: DT_FLOAT
            type: DT_INT32
          }
        }
      }
    }
    node_def {
      name: "Identity"
      op: "Identity"
      input: "MultiDeviceIteratorGetNextFromShard:components:0"
      input: "^MultiDeviceIteratorGetNextFromShard"
      input: "^MultiDeviceIteratorFromStringHandle"
      device: "/replica:0/task:0/device:CPU:0"
      attr {
        key: "T"
        value {
          type: DT_FLOAT
        }
      }
      attr {
        key: "_output_shapes"
        value {
          list {
            shape {
              dim {
                size: -1
              }
              dim {
                size: 10
              }
            }
          }
        }
      }
    }
    node_def {
      name: "Identity_1"
      op: "Identity"
      input: "MultiDeviceIteratorGetNextFromShard:components:1"
      input: "^MultiDeviceIteratorGetNextFromShard"
      input: "^MultiDeviceIteratorFromStringHandle"
      device: "/replica:0/task:0/device:CPU:0"
      attr {
        key: "T"
        value {
          type: DT_INT32
        }
      }
      attr {
        key: "_output_shapes"
        value {
          list {
            shape {
              dim {
                size: -1
              }
              dim {
                size: 1
              }
            }
          }
        }
      }
    }
    ret {
      key: "identity"
      value: "Identity:output:0"
    }
    ret {
      key: "identity_1"
      value: "Identity_1:output:0"
    }
    attr {
      key: "_input_shapes"
      value {
        list {
          shape {
          }
          shape {
          }
        }
      }
    }
    control_ret {
      key: "MultiDeviceIteratorFromStringHandle"
      value: "MultiDeviceIteratorFromStringHandle"
    }
    control_ret {
      key: "MultiDeviceIteratorGetNextFromShard"
      value: "MultiDeviceIteratorGetNextFromShard"
    }
    arg_attr {
      value {
        attr {
          key: "_user_specified_name"
          value {
            s: "string_handle"
          }
        }
      }
    }
    arg_attr {
      key: 1
      value {
      }
    }
  }
  function {
    signature {
      name: "__inference__remote_next_func_123"
      input_arg {
        name: "string_handle"
        type: DT_STRING
      }
      input_arg {
        name: "remotecall_const"
        type: DT_STRING
      }
      input_arg {
        name: "remotecall_multideviceiteratorinit"
        type: DT_INT64
      }
      output_arg {
        name: "identity"
        type: DT_FLOAT
      }
      output_arg {
        name: "identity_1"
        type: DT_INT32
      }
      is_stateful: true
      control_output: "RemoteCall"
    }
    node_def {
      name: "RemoteCall"
      op: "RemoteCall"
      input: "remotecall_const"
      input: "string_handle"
      input: "remotecall_multideviceiteratorinit"
      device: "/replica:0/task:0/device:CPU:0"
      attr {
        key: "Tin"
        value {
          list {
            type: DT_STRING
            type: DT_INT64
          }
        }
      }
      attr {
        key: "Tout"
        value {
          list {
            type: DT_FLOAT
            type: DT_INT32
          }
        }
      }
      attr {
        key: "_output_shapes"
        value {
          list {
            shape {
              unknown_rank: true
            }
            shape {
              unknown_rank: true
            }
          }
        }
      }
      attr {
        key: "f"
        value {
          func {
            name: "__inference__next_func_114"
          }
        }
      }
    }
    node_def {
      name: "Identity"
      op: "Identity"
      input: "RemoteCall:output:0"
      input: "^RemoteCall"
      device: "/replica:0/task:0/device:CPU:0"
      attr {
        key: "T"
        value {
          type: DT_FLOAT
        }
      }
      attr {
        key: "_output_shapes"
        value {
          list {
            shape {
              unknown_rank: true
            }
          }
        }
      }
    }
    node_def {
      name: "Identity_1"
      op: "Identity"
      input: "RemoteCall:output:1"
      input: "^RemoteCall"
      device: "/replica:0/task:0/device:CPU:0"
      attr {
        key: "T"
        value {
          type: DT_INT32
        }
      }
      attr {
        key: "_output_shapes"
        value {
          list {
            shape {
              unknown_rank: true
            }
          }
        }
      }
    }
    ret {
      key: "identity"
      value: "Identity:output:0"
    }
    ret {
      key: "identity_1"
      value: "Identity_1:output:0"
    }
    attr {
      key: "_input_shapes"
      value {
        list {
          shape {
          }
          shape {
          }
          shape {
          }
        }
      }
    }
    attr {
      key: "experimental_ints_on_device"
      value {
        b: true
      }
    }
    control_ret {
      key: "RemoteCall"
      value: "RemoteCall"
    }
    arg_attr {
      value {
        attr {
          key: "_user_specified_name"
          value {
            s: "string_handle"
          }
        }
      }
    }
    arg_attr {
      key: 1
      value {
      }
    }
    arg_attr {
      key: 2
      value {
      }
    }
  }
  function {
    signature {
      name: "__inference__finalize_func_128"
      input_arg {
        name: "unused_string_handle"
        type: DT_STRING
      }
      output_arg {
        name: "identity"
        type: DT_INT64
      }
    }
    node_def {
      name: "Const"
      op: "Const"
      device: "/replica:0/task:0/device:CPU:0"
      attr {
        key: "_output_shapes"
        value {
          list {
            shape {
            }
          }
        }
      }
      attr {
        key: "dtype"
        value {
          type: DT_INT64
        }
      }
      attr {
        key: "value"
        value {
          tensor {
            dtype: DT_INT64
            tensor_shape {
            }
            int64_val: 0
          }
        }
      }
    }
    node_def {
      name: "Identity"
      op: "Identity"
      input: "Const:output:0"
      device: "/replica:0/task:0/device:CPU:0"
      attr {
        key: "T"
        value {
          type: DT_INT64
        }
      }
      attr {
        key: "_output_shapes"
        value {
          list {
            shape {
            }
          }
        }
      }
    }
    ret {
      key: "identity"
      value: "Identity:output:0"
    }
    attr {
      key: "_input_shapes"
      value {
        list {
          shape {
          }
        }
      }
    }
    arg_attr {
      value {
        attr {
          key: "_user_specified_name"
          value {
            s: "unused_string_handle"
          }
        }
      }
    }
  }
}
versions {
  producer: 38
  min_consumer: 12
}
